<?xml version="1.0"?>
<net name="Model0" version="11">
	<layers>
		<layer id="0" name="x" type="Parameter" version="opset1">
			<data shape="1,3,896,1536" element_type="f32" />
			<output>
				<port id="0" precision="FP32" names="x">
					<dim>1</dim>
					<dim>3</dim>
					<dim>896</dim>
					<dim>1536</dim>
				</port>
			</output>
		</layer>
		<layer id="1" name="__module.model.23/aten::unsqueeze/Unsqueeze_compressed" type="Const" version="opset1">
			<data element_type="f16" shape="1, 2, 28224" offset="0" size="112896" />
			<output>
				<port id="0" precision="FP16" names="1460,anchor_points">
					<dim>1</dim>
					<dim>2</dim>
					<dim>28224</dim>
				</port>
			</output>
		</layer>
		<layer id="2" name="__module.model.23/aten::unsqueeze/Unsqueeze" type="Convert" version="opset1">
			<data destination_type="f32" />
			<rt_info>
				<attribute name="decompression" version="0" />
			</rt_info>
			<input>
				<port id="0" precision="FP16">
					<dim>1</dim>
					<dim>2</dim>
					<dim>28224</dim>
				</port>
			</input>
			<output>
				<port id="1" precision="FP32">
					<dim>1</dim>
					<dim>2</dim>
					<dim>28224</dim>
				</port>
			</output>
		</layer>
		<layer id="3" name="self.model.0.conv.weight_compressed" type="Const" version="opset1">
			<data element_type="f16" shape="32, 3, 3, 3" offset="112896" size="1728" />
			<output>
				<port id="0" precision="FP16" names="self.model.0.conv.weight">
					<dim>32</dim>
					<dim>3</dim>
					<dim>3</dim>
					<dim>3</dim>
				</port>
			</output>
		</layer>
		<layer id="4" name="self.model.0.conv.weight" type="Convert" version="opset1">
			<data destination_type="f32" />
			<rt_info>
				<attribute name="decompression" version="0" />
			</rt_info>
			<input>
				<port id="0" precision="FP16">
					<dim>32</dim>
					<dim>3</dim>
					<dim>3</dim>
					<dim>3</dim>
				</port>
			</input>
			<output>
				<port id="1" precision="FP32">
					<dim>32</dim>
					<dim>3</dim>
					<dim>3</dim>
					<dim>3</dim>
				</port>
			</output>
		</layer>
		<layer id="5" name="__module.model.0.conv/aten::_convolution/Convolution" type="Convolution" version="opset1">
			<data strides="2, 2" dilations="1, 1" pads_begin="1, 1" pads_end="1, 1" auto_pad="explicit" />
			<input>
				<port id="0" precision="FP32">
					<dim>1</dim>
					<dim>3</dim>
					<dim>896</dim>
					<dim>1536</dim>
				</port>
				<port id="1" precision="FP32">
					<dim>32</dim>
					<dim>3</dim>
					<dim>3</dim>
					<dim>3</dim>
				</port>
			</input>
			<output>
				<port id="2" precision="FP32">
					<dim>1</dim>
					<dim>32</dim>
					<dim>448</dim>
					<dim>768</dim>
				</port>
			</output>
		</layer>
		<layer id="6" name="__module.model.0.conv/aten::_convolution/Reshape_compressed" type="Const" version="opset1">
			<data element_type="f16" shape="1, 32, 1, 1" offset="114624" size="64" />
			<output>
				<port id="0" precision="FP16">
					<dim>1</dim>
					<dim>32</dim>
					<dim>1</dim>
					<dim>1</dim>
				</port>
			</output>
		</layer>
		<layer id="7" name="__module.model.0.conv/aten::_convolution/Reshape" type="Convert" version="opset1">
			<data destination_type="f32" />
			<rt_info>
				<attribute name="decompression" version="0" />
			</rt_info>
			<input>
				<port id="0" precision="FP16">
					<dim>1</dim>
					<dim>32</dim>
					<dim>1</dim>
					<dim>1</dim>
				</port>
			</input>
			<output>
				<port id="1" precision="FP32">
					<dim>1</dim>
					<dim>32</dim>
					<dim>1</dim>
					<dim>1</dim>
				</port>
			</output>
		</layer>
		<layer id="8" name="__module.model.0.conv/aten::_convolution/Add" type="Add" version="opset1">
			<data auto_broadcast="numpy" />
			<input>
				<port id="0" precision="FP32">
					<dim>1</dim>
					<dim>32</dim>
					<dim>448</dim>
					<dim>768</dim>
				</port>
				<port id="1" precision="FP32">
					<dim>1</dim>
					<dim>32</dim>
					<dim>1</dim>
					<dim>1</dim>
				</port>
			</input>
			<output>
				<port id="2" precision="FP32" names="94_1">
					<dim>1</dim>
					<dim>32</dim>
					<dim>448</dim>
					<dim>768</dim>
				</port>
			</output>
		</layer>
		<layer id="9" name="__module.model.22.m.0.1.ffn.0.act/aten::silu_/Swish" type="Swish" version="opset4">
			<input>
				<port id="0" precision="FP32">
					<dim>1</dim>
					<dim>32</dim>
					<dim>448</dim>
					<dim>768</dim>
				</port>
			</input>
			<output>
				<port id="1" precision="FP32" names="94,input.1">
					<dim>1</dim>
					<dim>32</dim>
					<dim>448</dim>
					<dim>768</dim>
				</port>
			</output>
		</layer>
		<layer id="10" name="self.model.1.conv.weight_compressed" type="Const" version="opset1">
			<data element_type="f16" shape="64, 32, 3, 3" offset="114688" size="36864" />
			<output>
				<port id="0" precision="FP16" names="self.model.1.conv.weight">
					<dim>64</dim>
					<dim>32</dim>
					<dim>3</dim>
					<dim>3</dim>
				</port>
			</output>
		</layer>
		<layer id="11" name="self.model.1.conv.weight" type="Convert" version="opset1">
			<data destination_type="f32" />
			<rt_info>
				<attribute name="decompression" version="0" />
			</rt_info>
			<input>
				<port id="0" precision="FP16">
					<dim>64</dim>
					<dim>32</dim>
					<dim>3</dim>
					<dim>3</dim>
				</port>
			</input>
			<output>
				<port id="1" precision="FP32">
					<dim>64</dim>
					<dim>32</dim>
					<dim>3</dim>
					<dim>3</dim>
				</port>
			</output>
		</layer>
		<layer id="12" name="__module.model.1.conv/aten::_convolution/Convolution" type="Convolution" version="opset1">
			<data strides="2, 2" dilations="1, 1" pads_begin="1, 1" pads_end="1, 1" auto_pad="explicit" />
			<input>
				<port id="0" precision="FP32">
					<dim>1</dim>
					<dim>32</dim>
					<dim>448</dim>
					<dim>768</dim>
				</port>
				<port id="1" precision="FP32">
					<dim>64</dim>
					<dim>32</dim>
					<dim>3</dim>
					<dim>3</dim>
				</port>
			</input>
			<output>
				<port id="2" precision="FP32">
					<dim>1</dim>
					<dim>64</dim>
					<dim>224</dim>
					<dim>384</dim>
				</port>
			</output>
		</layer>
		<layer id="13" name="__module.model.1.conv/aten::_convolution/Reshape_compressed" type="Const" version="opset1">
			<data element_type="f16" shape="1, 64, 1, 1" offset="151552" size="128" />
			<output>
				<port id="0" precision="FP16">
					<dim>1</dim>
					<dim>64</dim>
					<dim>1</dim>
					<dim>1</dim>
				</port>
			</output>
		</layer>
		<layer id="14" name="__module.model.1.conv/aten::_convolution/Reshape" type="Convert" version="opset1">
			<data destination_type="f32" />
			<rt_info>
				<attribute name="decompression" version="0" />
			</rt_info>
			<input>
				<port id="0" precision="FP16">
					<dim>1</dim>
					<dim>64</dim>
					<dim>1</dim>
					<dim>1</dim>
				</port>
			</input>
			<output>
				<port id="1" precision="FP32">
					<dim>1</dim>
					<dim>64</dim>
					<dim>1</dim>
					<dim>1</dim>
				</port>
			</output>
		</layer>
		<layer id="15" name="__module.model.1.conv/aten::_convolution/Add" type="Add" version="opset1">
			<data auto_broadcast="numpy" />
			<input>
				<port id="0" precision="FP32">
					<dim>1</dim>
					<dim>64</dim>
					<dim>224</dim>
					<dim>384</dim>
				</port>
				<port id="1" precision="FP32">
					<dim>1</dim>
					<dim>64</dim>
					<dim>1</dim>
					<dim>1</dim>
				</port>
			</input>
			<output>
				<port id="2" precision="FP32" names="108_1">
					<dim>1</dim>
					<dim>64</dim>
					<dim>224</dim>
					<dim>384</dim>
				</port>
			</output>
		</layer>
		<layer id="16" name="__module.model.22.m.0.1.ffn.0.act/aten::silu_/Swish_1" type="Swish" version="opset4">
			<input>
				<port id="0" precision="FP32">
					<dim>1</dim>
					<dim>64</dim>
					<dim>224</dim>
					<dim>384</dim>
				</port>
			</input>
			<output>
				<port id="1" precision="FP32" names="108,input.5">
					<dim>1</dim>
					<dim>64</dim>
					<dim>224</dim>
					<dim>384</dim>
				</port>
			</output>
		</layer>
		<layer id="17" name="self.model.2.cv1.conv.weight_compressed" type="Const" version="opset1">
			<data element_type="f16" shape="64, 64, 1, 1" offset="151680" size="8192" />
			<output>
				<port id="0" precision="FP16" names="self.model.2.cv1.conv.weight">
					<dim>64</dim>
					<dim>64</dim>
					<dim>1</dim>
					<dim>1</dim>
				</port>
			</output>
		</layer>
		<layer id="18" name="self.model.2.cv1.conv.weight" type="Convert" version="opset1">
			<data destination_type="f32" />
			<rt_info>
				<attribute name="decompression" version="0" />
			</rt_info>
			<input>
				<port id="0" precision="FP16">
					<dim>64</dim>
					<dim>64</dim>
					<dim>1</dim>
					<dim>1</dim>
				</port>
			</input>
			<output>
				<port id="1" precision="FP32">
					<dim>64</dim>
					<dim>64</dim>
					<dim>1</dim>
					<dim>1</dim>
				</port>
			</output>
		</layer>
		<layer id="19" name="__module.model.2.cv1.conv/aten::_convolution/Convolution" type="Convolution" version="opset1">
			<data strides="1, 1" dilations="1, 1" pads_begin="0, 0" pads_end="0, 0" auto_pad="explicit" />
			<input>
				<port id="0" precision="FP32">
					<dim>1</dim>
					<dim>64</dim>
					<dim>224</dim>
					<dim>384</dim>
				</port>
				<port id="1" precision="FP32">
					<dim>64</dim>
					<dim>64</dim>
					<dim>1</dim>
					<dim>1</dim>
				</port>
			</input>
			<output>
				<port id="2" precision="FP32">
					<dim>1</dim>
					<dim>64</dim>
					<dim>224</dim>
					<dim>384</dim>
				</port>
			</output>
		</layer>
		<layer id="20" name="__module.model.2.cv1.conv/aten::_convolution/Reshape_compressed" type="Const" version="opset1">
			<data element_type="f16" shape="1, 64, 1, 1" offset="159872" size="128" />
			<output>
				<port id="0" precision="FP16">
					<dim>1</dim>
					<dim>64</dim>
					<dim>1</dim>
					<dim>1</dim>
				</port>
			</output>
		</layer>
		<layer id="21" name="__module.model.2.cv1.conv/aten::_convolution/Reshape" type="Convert" version="opset1">
			<data destination_type="f32" />
			<rt_info>
				<attribute name="decompression" version="0" />
			</rt_info>
			<input>
				<port id="0" precision="FP16">
					<dim>1</dim>
					<dim>64</dim>
					<dim>1</dim>
					<dim>1</dim>
				</port>
			</input>
			<output>
				<port id="1" precision="FP32">
					<dim>1</dim>
					<dim>64</dim>
					<dim>1</dim>
					<dim>1</dim>
				</port>
			</output>
		</layer>
		<layer id="22" name="__module.model.2.cv1.conv/aten::_convolution/Add" type="Add" version="opset1">
			<data auto_broadcast="numpy" />
			<input>
				<port id="0" precision="FP32">
					<dim>1</dim>
					<dim>64</dim>
					<dim>224</dim>
					<dim>384</dim>
				</port>
				<port id="1" precision="FP32">
					<dim>1</dim>
					<dim>64</dim>
					<dim>1</dim>
					<dim>1</dim>
				</port>
			</input>
			<output>
				<port id="2" precision="FP32" names="126_1">
					<dim>1</dim>
					<dim>64</dim>
					<dim>224</dim>
					<dim>384</dim>
				</port>
			</output>
		</layer>
		<layer id="23" name="__module.model.22.m.0.1.ffn.0.act/aten::silu_/Swish_2" type="Swish" version="opset4">
			<input>
				<port id="0" precision="FP32">
					<dim>1</dim>
					<dim>64</dim>
					<dim>224</dim>
					<dim>384</dim>
				</port>
			</input>
			<output>
				<port id="1" precision="FP32" names="126,input.9">
					<dim>1</dim>
					<dim>64</dim>
					<dim>224</dim>
					<dim>384</dim>
				</port>
			</output>
		</layer>
		<layer id="24" name="114" type="Const" version="opset1">
			<data element_type="i64" shape="" offset="160000" size="8" />
			<output>
				<port id="0" precision="I64" names="114" />
			</output>
		</layer>
		<layer id="25" name="Constant_232" type="Const" version="opset1">
			<data element_type="i64" shape="2" offset="160008" size="16" />
			<output>
				<port id="0" precision="I64">
					<dim>2</dim>
				</port>
			</output>
		</layer>
		<layer id="26" name="__module.model.2/aten::split_with_sizes/VariadicSplit" type="VariadicSplit" version="opset1">
			<input>
				<port id="0" precision="FP32">
					<dim>1</dim>
					<dim>64</dim>
					<dim>224</dim>
					<dim>384</dim>
				</port>
				<port id="1" precision="I64" />
				<port id="2" precision="I64">
					<dim>2</dim>
				</port>
			</input>
			<output>
				<port id="3" precision="FP32" names="130">
					<dim>1</dim>
					<dim>32</dim>
					<dim>224</dim>
					<dim>384</dim>
				</port>
				<port id="4" precision="FP32" names="131,input.11">
					<dim>1</dim>
					<dim>32</dim>
					<dim>224</dim>
					<dim>384</dim>
				</port>
			</output>
		</layer>
		<layer id="27" name="self.model.2.m.0.cv1.conv.weight_compressed" type="Const" version="opset1">
			<data element_type="f16" shape="16, 32, 3, 3" offset="160024" size="9216" />
			<output>
				<port id="0" precision="FP16" names="self.model.2.m.0.cv1.conv.weight">
					<dim>16</dim>
					<dim>32</dim>
					<dim>3</dim>
					<dim>3</dim>
				</port>
			</output>
		</layer>
		<layer id="28" name="self.model.2.m.0.cv1.conv.weight" type="Convert" version="opset1">
			<data destination_type="f32" />
			<rt_info>
				<attribute name="decompression" version="0" />
			</rt_info>
			<input>
				<port id="0" precision="FP16">
					<dim>16</dim>
					<dim>32</dim>
					<dim>3</dim>
					<dim>3</dim>
				</port>
			</input>
			<output>
				<port id="1" precision="FP32">
					<dim>16</dim>
					<dim>32</dim>
					<dim>3</dim>
					<dim>3</dim>
				</port>
			</output>
		</layer>
		<layer id="29" name="__module.model.2.m.0.cv1.conv/aten::_convolution/Convolution" type="Convolution" version="opset1">
			<data strides="1, 1" dilations="1, 1" pads_begin="1, 1" pads_end="1, 1" auto_pad="explicit" />
			<input>
				<port id="0" precision="FP32">
					<dim>1</dim>
					<dim>32</dim>
					<dim>224</dim>
					<dim>384</dim>
				</port>
				<port id="1" precision="FP32">
					<dim>16</dim>
					<dim>32</dim>
					<dim>3</dim>
					<dim>3</dim>
				</port>
			</input>
			<output>
				<port id="2" precision="FP32">
					<dim>1</dim>
					<dim>16</dim>
					<dim>224</dim>
					<dim>384</dim>
				</port>
			</output>
		</layer>
		<layer id="30" name="__module.model.2.m.0.cv1.conv/aten::_convolution/Reshape_compressed" type="Const" version="opset1">
			<data element_type="f16" shape="1, 16, 1, 1" offset="169240" size="32" />
			<output>
				<port id="0" precision="FP16">
					<dim>1</dim>
					<dim>16</dim>
					<dim>1</dim>
					<dim>1</dim>
				</port>
			</output>
		</layer>
		<layer id="31" name="__module.model.2.m.0.cv1.conv/aten::_convolution/Reshape" type="Convert" version="opset1">
			<data destination_type="f32" />
			<rt_info>
				<attribute name="decompression" version="0" />
			</rt_info>
			<input>
				<port id="0" precision="FP16">
					<dim>1</dim>
					<dim>16</dim>
					<dim>1</dim>
					<dim>1</dim>
				</port>
			</input>
			<output>
				<port id="1" precision="FP32">
					<dim>1</dim>
					<dim>16</dim>
					<dim>1</dim>
					<dim>1</dim>
				</port>
			</output>
		</layer>
		<layer id="32" name="__module.model.2.m.0.cv1.conv/aten::_convolution/Add" type="Add" version="opset1">
			<data auto_broadcast="numpy" />
			<input>
				<port id="0" precision="FP32">
					<dim>1</dim>
					<dim>16</dim>
					<dim>224</dim>
					<dim>384</dim>
				</port>
				<port id="1" precision="FP32">
					<dim>1</dim>
					<dim>16</dim>
					<dim>1</dim>
					<dim>1</dim>
				</port>
			</input>
			<output>
				<port id="2" precision="FP32" names="141_1">
					<dim>1</dim>
					<dim>16</dim>
					<dim>224</dim>
					<dim>384</dim>
				</port>
			</output>
		</layer>
		<layer id="33" name="__module.model.22.m.0.1.ffn.0.act/aten::silu_/Swish_3" type="Swish" version="opset4">
			<input>
				<port id="0" precision="FP32">
					<dim>1</dim>
					<dim>16</dim>
					<dim>224</dim>
					<dim>384</dim>
				</port>
			</input>
			<output>
				<port id="1" precision="FP32" names="141,input.13">
					<dim>1</dim>
					<dim>16</dim>
					<dim>224</dim>
					<dim>384</dim>
				</port>
			</output>
		</layer>
		<layer id="34" name="self.model.2.m.0.cv2.conv.weight_compressed" type="Const" version="opset1">
			<data element_type="f16" shape="32, 16, 3, 3" offset="169272" size="9216" />
			<output>
				<port id="0" precision="FP16" names="self.model.2.m.0.cv2.conv.weight">
					<dim>32</dim>
					<dim>16</dim>
					<dim>3</dim>
					<dim>3</dim>
				</port>
			</output>
		</layer>
		<layer id="35" name="self.model.2.m.0.cv2.conv.weight" type="Convert" version="opset1">
			<data destination_type="f32" />
			<rt_info>
				<attribute name="decompression" version="0" />
			</rt_info>
			<input>
				<port id="0" precision="FP16">
					<dim>32</dim>
					<dim>16</dim>
					<dim>3</dim>
					<dim>3</dim>
				</port>
			</input>
			<output>
				<port id="1" precision="FP32">
					<dim>32</dim>
					<dim>16</dim>
					<dim>3</dim>
					<dim>3</dim>
				</port>
			</output>
		</layer>
		<layer id="36" name="__module.model.2.m.0.cv2.conv/aten::_convolution/Convolution" type="Convolution" version="opset1">
			<data strides="1, 1" dilations="1, 1" pads_begin="1, 1" pads_end="1, 1" auto_pad="explicit" />
			<input>
				<port id="0" precision="FP32">
					<dim>1</dim>
					<dim>16</dim>
					<dim>224</dim>
					<dim>384</dim>
				</port>
				<port id="1" precision="FP32">
					<dim>32</dim>
					<dim>16</dim>
					<dim>3</dim>
					<dim>3</dim>
				</port>
			</input>
			<output>
				<port id="2" precision="FP32">
					<dim>1</dim>
					<dim>32</dim>
					<dim>224</dim>
					<dim>384</dim>
				</port>
			</output>
		</layer>
		<layer id="37" name="__module.model.2.m.0.cv2.conv/aten::_convolution/Reshape_compressed" type="Const" version="opset1">
			<data element_type="f16" shape="1, 32, 1, 1" offset="178488" size="64" />
			<output>
				<port id="0" precision="FP16">
					<dim>1</dim>
					<dim>32</dim>
					<dim>1</dim>
					<dim>1</dim>
				</port>
			</output>
		</layer>
		<layer id="38" name="__module.model.2.m.0.cv2.conv/aten::_convolution/Reshape" type="Convert" version="opset1">
			<data destination_type="f32" />
			<rt_info>
				<attribute name="decompression" version="0" />
			</rt_info>
			<input>
				<port id="0" precision="FP16">
					<dim>1</dim>
					<dim>32</dim>
					<dim>1</dim>
					<dim>1</dim>
				</port>
			</input>
			<output>
				<port id="1" precision="FP32">
					<dim>1</dim>
					<dim>32</dim>
					<dim>1</dim>
					<dim>1</dim>
				</port>
			</output>
		</layer>
		<layer id="39" name="__module.model.2.m.0.cv2.conv/aten::_convolution/Add" type="Add" version="opset1">
			<data auto_broadcast="numpy" />
			<input>
				<port id="0" precision="FP32">
					<dim>1</dim>
					<dim>32</dim>
					<dim>224</dim>
					<dim>384</dim>
				</port>
				<port id="1" precision="FP32">
					<dim>1</dim>
					<dim>32</dim>
					<dim>1</dim>
					<dim>1</dim>
				</port>
			</input>
			<output>
				<port id="2" precision="FP32" names="150_1">
					<dim>1</dim>
					<dim>32</dim>
					<dim>224</dim>
					<dim>384</dim>
				</port>
			</output>
		</layer>
		<layer id="40" name="__module.model.22.m.0.1.ffn.0.act/aten::silu_/Swish_4" type="Swish" version="opset4">
			<input>
				<port id="0" precision="FP32">
					<dim>1</dim>
					<dim>32</dim>
					<dim>224</dim>
					<dim>384</dim>
				</port>
			</input>
			<output>
				<port id="1" precision="FP32" names="150,input.17">
					<dim>1</dim>
					<dim>32</dim>
					<dim>224</dim>
					<dim>384</dim>
				</port>
			</output>
		</layer>
		<layer id="41" name="__module.model.2.m.0/aten::add/Add" type="Add" version="opset1">
			<data auto_broadcast="numpy" />
			<input>
				<port id="0" precision="FP32">
					<dim>1</dim>
					<dim>32</dim>
					<dim>224</dim>
					<dim>384</dim>
				</port>
				<port id="1" precision="FP32">
					<dim>1</dim>
					<dim>32</dim>
					<dim>224</dim>
					<dim>384</dim>
				</port>
			</input>
			<output>
				<port id="2" precision="FP32" names="152">
					<dim>1</dim>
					<dim>32</dim>
					<dim>224</dim>
					<dim>384</dim>
				</port>
			</output>
		</layer>
		<layer id="42" name="__module.model.2/aten::cat/Concat" type="Concat" version="opset1">
			<data axis="1" />
			<input>
				<port id="0" precision="FP32">
					<dim>1</dim>
					<dim>32</dim>
					<dim>224</dim>
					<dim>384</dim>
				</port>
				<port id="1" precision="FP32">
					<dim>1</dim>
					<dim>32</dim>
					<dim>224</dim>
					<dim>384</dim>
				</port>
				<port id="2" precision="FP32">
					<dim>1</dim>
					<dim>32</dim>
					<dim>224</dim>
					<dim>384</dim>
				</port>
			</input>
			<output>
				<port id="3" precision="FP32" names="154,input.19">
					<dim>1</dim>
					<dim>96</dim>
					<dim>224</dim>
					<dim>384</dim>
				</port>
			</output>
		</layer>
		<layer id="43" name="self.model.2.cv2.conv.weight_compressed" type="Const" version="opset1">
			<data element_type="f16" shape="128, 96, 1, 1" offset="178552" size="24576" />
			<output>
				<port id="0" precision="FP16" names="self.model.2.cv2.conv.weight">
					<dim>128</dim>
					<dim>96</dim>
					<dim>1</dim>
					<dim>1</dim>
				</port>
			</output>
		</layer>
		<layer id="44" name="self.model.2.cv2.conv.weight" type="Convert" version="opset1">
			<data destination_type="f32" />
			<rt_info>
				<attribute name="decompression" version="0" />
			</rt_info>
			<input>
				<port id="0" precision="FP16">
					<dim>128</dim>
					<dim>96</dim>
					<dim>1</dim>
					<dim>1</dim>
				</port>
			</input>
			<output>
				<port id="1" precision="FP32">
					<dim>128</dim>
					<dim>96</dim>
					<dim>1</dim>
					<dim>1</dim>
				</port>
			</output>
		</layer>
		<layer id="45" name="__module.model.2.cv2.conv/aten::_convolution/Convolution" type="Convolution" version="opset1">
			<data strides="1, 1" dilations="1, 1" pads_begin="0, 0" pads_end="0, 0" auto_pad="explicit" />
			<input>
				<port id="0" precision="FP32">
					<dim>1</dim>
					<dim>96</dim>
					<dim>224</dim>
					<dim>384</dim>
				</port>
				<port id="1" precision="FP32">
					<dim>128</dim>
					<dim>96</dim>
					<dim>1</dim>
					<dim>1</dim>
				</port>
			</input>
			<output>
				<port id="2" precision="FP32">
					<dim>1</dim>
					<dim>128</dim>
					<dim>224</dim>
					<dim>384</dim>
				</port>
			</output>
		</layer>
		<layer id="46" name="__module.model.2.cv2.conv/aten::_convolution/Reshape_compressed" type="Const" version="opset1">
			<data element_type="f16" shape="1, 128, 1, 1" offset="203128" size="256" />
			<output>
				<port id="0" precision="FP16">
					<dim>1</dim>
					<dim>128</dim>
					<dim>1</dim>
					<dim>1</dim>
				</port>
			</output>
		</layer>
		<layer id="47" name="__module.model.2.cv2.conv/aten::_convolution/Reshape" type="Convert" version="opset1">
			<data destination_type="f32" />
			<rt_info>
				<attribute name="decompression" version="0" />
			</rt_info>
			<input>
				<port id="0" precision="FP16">
					<dim>1</dim>
					<dim>128</dim>
					<dim>1</dim>
					<dim>1</dim>
				</port>
			</input>
			<output>
				<port id="1" precision="FP32">
					<dim>1</dim>
					<dim>128</dim>
					<dim>1</dim>
					<dim>1</dim>
				</port>
			</output>
		</layer>
		<layer id="48" name="__module.model.2.cv2.conv/aten::_convolution/Add" type="Add" version="opset1">
			<data auto_broadcast="numpy" />
			<input>
				<port id="0" precision="FP32">
					<dim>1</dim>
					<dim>128</dim>
					<dim>224</dim>
					<dim>384</dim>
				</port>
				<port id="1" precision="FP32">
					<dim>1</dim>
					<dim>128</dim>
					<dim>1</dim>
					<dim>1</dim>
				</port>
			</input>
			<output>
				<port id="2" precision="FP32" names="162_1">
					<dim>1</dim>
					<dim>128</dim>
					<dim>224</dim>
					<dim>384</dim>
				</port>
			</output>
		</layer>
		<layer id="49" name="__module.model.22.m.0.1.ffn.0.act/aten::silu_/Swish_5" type="Swish" version="opset4">
			<input>
				<port id="0" precision="FP32">
					<dim>1</dim>
					<dim>128</dim>
					<dim>224</dim>
					<dim>384</dim>
				</port>
			</input>
			<output>
				<port id="1" precision="FP32" names="162,input.21">
					<dim>1</dim>
					<dim>128</dim>
					<dim>224</dim>
					<dim>384</dim>
				</port>
			</output>
		</layer>
		<layer id="50" name="self.model.3.conv.weight_compressed" type="Const" version="opset1">
			<data element_type="f16" shape="128, 128, 3, 3" offset="203384" size="294912" />
			<output>
				<port id="0" precision="FP16" names="self.model.3.conv.weight">
					<dim>128</dim>
					<dim>128</dim>
					<dim>3</dim>
					<dim>3</dim>
				</port>
			</output>
		</layer>
		<layer id="51" name="self.model.3.conv.weight" type="Convert" version="opset1">
			<data destination_type="f32" />
			<rt_info>
				<attribute name="decompression" version="0" />
			</rt_info>
			<input>
				<port id="0" precision="FP16">
					<dim>128</dim>
					<dim>128</dim>
					<dim>3</dim>
					<dim>3</dim>
				</port>
			</input>
			<output>
				<port id="1" precision="FP32">
					<dim>128</dim>
					<dim>128</dim>
					<dim>3</dim>
					<dim>3</dim>
				</port>
			</output>
		</layer>
		<layer id="52" name="__module.model.3.conv/aten::_convolution/Convolution" type="Convolution" version="opset1">
			<data strides="2, 2" dilations="1, 1" pads_begin="1, 1" pads_end="1, 1" auto_pad="explicit" />
			<input>
				<port id="0" precision="FP32">
					<dim>1</dim>
					<dim>128</dim>
					<dim>224</dim>
					<dim>384</dim>
				</port>
				<port id="1" precision="FP32">
					<dim>128</dim>
					<dim>128</dim>
					<dim>3</dim>
					<dim>3</dim>
				</port>
			</input>
			<output>
				<port id="2" precision="FP32">
					<dim>1</dim>
					<dim>128</dim>
					<dim>112</dim>
					<dim>192</dim>
				</port>
			</output>
		</layer>
		<layer id="53" name="__module.model.3.conv/aten::_convolution/Reshape_compressed" type="Const" version="opset1">
			<data element_type="f16" shape="1, 128, 1, 1" offset="498296" size="256" />
			<output>
				<port id="0" precision="FP16">
					<dim>1</dim>
					<dim>128</dim>
					<dim>1</dim>
					<dim>1</dim>
				</port>
			</output>
		</layer>
		<layer id="54" name="__module.model.3.conv/aten::_convolution/Reshape" type="Convert" version="opset1">
			<data destination_type="f32" />
			<rt_info>
				<attribute name="decompression" version="0" />
			</rt_info>
			<input>
				<port id="0" precision="FP16">
					<dim>1</dim>
					<dim>128</dim>
					<dim>1</dim>
					<dim>1</dim>
				</port>
			</input>
			<output>
				<port id="1" precision="FP32">
					<dim>1</dim>
					<dim>128</dim>
					<dim>1</dim>
					<dim>1</dim>
				</port>
			</output>
		</layer>
		<layer id="55" name="__module.model.3.conv/aten::_convolution/Add" type="Add" version="opset1">
			<data auto_broadcast="numpy" />
			<input>
				<port id="0" precision="FP32">
					<dim>1</dim>
					<dim>128</dim>
					<dim>112</dim>
					<dim>192</dim>
				</port>
				<port id="1" precision="FP32">
					<dim>1</dim>
					<dim>128</dim>
					<dim>1</dim>
					<dim>1</dim>
				</port>
			</input>
			<output>
				<port id="2" precision="FP32" names="176_1">
					<dim>1</dim>
					<dim>128</dim>
					<dim>112</dim>
					<dim>192</dim>
				</port>
			</output>
		</layer>
		<layer id="56" name="__module.model.22.m.0.1.ffn.0.act/aten::silu_/Swish_6" type="Swish" version="opset4">
			<input>
				<port id="0" precision="FP32">
					<dim>1</dim>
					<dim>128</dim>
					<dim>112</dim>
					<dim>192</dim>
				</port>
			</input>
			<output>
				<port id="1" precision="FP32" names="176,input.25">
					<dim>1</dim>
					<dim>128</dim>
					<dim>112</dim>
					<dim>192</dim>
				</port>
			</output>
		</layer>
		<layer id="57" name="self.model.4.cv1.conv.weight_compressed" type="Const" version="opset1">
			<data element_type="f16" shape="128, 128, 1, 1" offset="498552" size="32768" />
			<output>
				<port id="0" precision="FP16" names="self.model.4.cv1.conv.weight">
					<dim>128</dim>
					<dim>128</dim>
					<dim>1</dim>
					<dim>1</dim>
				</port>
			</output>
		</layer>
		<layer id="58" name="self.model.4.cv1.conv.weight" type="Convert" version="opset1">
			<data destination_type="f32" />
			<rt_info>
				<attribute name="decompression" version="0" />
			</rt_info>
			<input>
				<port id="0" precision="FP16">
					<dim>128</dim>
					<dim>128</dim>
					<dim>1</dim>
					<dim>1</dim>
				</port>
			</input>
			<output>
				<port id="1" precision="FP32">
					<dim>128</dim>
					<dim>128</dim>
					<dim>1</dim>
					<dim>1</dim>
				</port>
			</output>
		</layer>
		<layer id="59" name="__module.model.4.cv1.conv/aten::_convolution/Convolution" type="Convolution" version="opset1">
			<data strides="1, 1" dilations="1, 1" pads_begin="0, 0" pads_end="0, 0" auto_pad="explicit" />
			<input>
				<port id="0" precision="FP32">
					<dim>1</dim>
					<dim>128</dim>
					<dim>112</dim>
					<dim>192</dim>
				</port>
				<port id="1" precision="FP32">
					<dim>128</dim>
					<dim>128</dim>
					<dim>1</dim>
					<dim>1</dim>
				</port>
			</input>
			<output>
				<port id="2" precision="FP32">
					<dim>1</dim>
					<dim>128</dim>
					<dim>112</dim>
					<dim>192</dim>
				</port>
			</output>
		</layer>
		<layer id="60" name="__module.model.4.cv1.conv/aten::_convolution/Reshape_compressed" type="Const" version="opset1">
			<data element_type="f16" shape="1, 128, 1, 1" offset="531320" size="256" />
			<output>
				<port id="0" precision="FP16">
					<dim>1</dim>
					<dim>128</dim>
					<dim>1</dim>
					<dim>1</dim>
				</port>
			</output>
		</layer>
		<layer id="61" name="__module.model.4.cv1.conv/aten::_convolution/Reshape" type="Convert" version="opset1">
			<data destination_type="f32" />
			<rt_info>
				<attribute name="decompression" version="0" />
			</rt_info>
			<input>
				<port id="0" precision="FP16">
					<dim>1</dim>
					<dim>128</dim>
					<dim>1</dim>
					<dim>1</dim>
				</port>
			</input>
			<output>
				<port id="1" precision="FP32">
					<dim>1</dim>
					<dim>128</dim>
					<dim>1</dim>
					<dim>1</dim>
				</port>
			</output>
		</layer>
		<layer id="62" name="__module.model.4.cv1.conv/aten::_convolution/Add" type="Add" version="opset1">
			<data auto_broadcast="numpy" />
			<input>
				<port id="0" precision="FP32">
					<dim>1</dim>
					<dim>128</dim>
					<dim>112</dim>
					<dim>192</dim>
				</port>
				<port id="1" precision="FP32">
					<dim>1</dim>
					<dim>128</dim>
					<dim>1</dim>
					<dim>1</dim>
				</port>
			</input>
			<output>
				<port id="2" precision="FP32" names="194_1">
					<dim>1</dim>
					<dim>128</dim>
					<dim>112</dim>
					<dim>192</dim>
				</port>
			</output>
		</layer>
		<layer id="63" name="__module.model.22.m.0.1.ffn.0.act/aten::silu_/Swish_7" type="Swish" version="opset4">
			<input>
				<port id="0" precision="FP32">
					<dim>1</dim>
					<dim>128</dim>
					<dim>112</dim>
					<dim>192</dim>
				</port>
			</input>
			<output>
				<port id="1" precision="FP32" names="194,input.29">
					<dim>1</dim>
					<dim>128</dim>
					<dim>112</dim>
					<dim>192</dim>
				</port>
			</output>
		</layer>
		<layer id="64" name="182" type="Const" version="opset1">
			<data element_type="i64" shape="" offset="160000" size="8" />
			<output>
				<port id="0" precision="I64" names="182" />
			</output>
		</layer>
		<layer id="65" name="Constant_512" type="Const" version="opset1">
			<data element_type="i64" shape="2" offset="531576" size="16" />
			<output>
				<port id="0" precision="I64">
					<dim>2</dim>
				</port>
			</output>
		</layer>
		<layer id="66" name="__module.model.4/aten::split_with_sizes/VariadicSplit" type="VariadicSplit" version="opset1">
			<input>
				<port id="0" precision="FP32">
					<dim>1</dim>
					<dim>128</dim>
					<dim>112</dim>
					<dim>192</dim>
				</port>
				<port id="1" precision="I64" />
				<port id="2" precision="I64">
					<dim>2</dim>
				</port>
			</input>
			<output>
				<port id="3" precision="FP32" names="198">
					<dim>1</dim>
					<dim>64</dim>
					<dim>112</dim>
					<dim>192</dim>
				</port>
				<port id="4" precision="FP32" names="199,input.31">
					<dim>1</dim>
					<dim>64</dim>
					<dim>112</dim>
					<dim>192</dim>
				</port>
			</output>
		</layer>
		<layer id="67" name="self.model.4.m.0.cv1.conv.weight_compressed" type="Const" version="opset1">
			<data element_type="f16" shape="32, 64, 3, 3" offset="531592" size="36864" />
			<output>
				<port id="0" precision="FP16" names="self.model.4.m.0.cv1.conv.weight">
					<dim>32</dim>
					<dim>64</dim>
					<dim>3</dim>
					<dim>3</dim>
				</port>
			</output>
		</layer>
		<layer id="68" name="self.model.4.m.0.cv1.conv.weight" type="Convert" version="opset1">
			<data destination_type="f32" />
			<rt_info>
				<attribute name="decompression" version="0" />
			</rt_info>
			<input>
				<port id="0" precision="FP16">
					<dim>32</dim>
					<dim>64</dim>
					<dim>3</dim>
					<dim>3</dim>
				</port>
			</input>
			<output>
				<port id="1" precision="FP32">
					<dim>32</dim>
					<dim>64</dim>
					<dim>3</dim>
					<dim>3</dim>
				</port>
			</output>
		</layer>
		<layer id="69" name="__module.model.4.m.0.cv1.conv/aten::_convolution/Convolution" type="Convolution" version="opset1">
			<data strides="1, 1" dilations="1, 1" pads_begin="1, 1" pads_end="1, 1" auto_pad="explicit" />
			<input>
				<port id="0" precision="FP32">
					<dim>1</dim>
					<dim>64</dim>
					<dim>112</dim>
					<dim>192</dim>
				</port>
				<port id="1" precision="FP32">
					<dim>32</dim>
					<dim>64</dim>
					<dim>3</dim>
					<dim>3</dim>
				</port>
			</input>
			<output>
				<port id="2" precision="FP32">
					<dim>1</dim>
					<dim>32</dim>
					<dim>112</dim>
					<dim>192</dim>
				</port>
			</output>
		</layer>
		<layer id="70" name="__module.model.4.m.0.cv1.conv/aten::_convolution/Reshape_compressed" type="Const" version="opset1">
			<data element_type="f16" shape="1, 32, 1, 1" offset="568456" size="64" />
			<output>
				<port id="0" precision="FP16">
					<dim>1</dim>
					<dim>32</dim>
					<dim>1</dim>
					<dim>1</dim>
				</port>
			</output>
		</layer>
		<layer id="71" name="__module.model.4.m.0.cv1.conv/aten::_convolution/Reshape" type="Convert" version="opset1">
			<data destination_type="f32" />
			<rt_info>
				<attribute name="decompression" version="0" />
			</rt_info>
			<input>
				<port id="0" precision="FP16">
					<dim>1</dim>
					<dim>32</dim>
					<dim>1</dim>
					<dim>1</dim>
				</port>
			</input>
			<output>
				<port id="1" precision="FP32">
					<dim>1</dim>
					<dim>32</dim>
					<dim>1</dim>
					<dim>1</dim>
				</port>
			</output>
		</layer>
		<layer id="72" name="__module.model.4.m.0.cv1.conv/aten::_convolution/Add" type="Add" version="opset1">
			<data auto_broadcast="numpy" />
			<input>
				<port id="0" precision="FP32">
					<dim>1</dim>
					<dim>32</dim>
					<dim>112</dim>
					<dim>192</dim>
				</port>
				<port id="1" precision="FP32">
					<dim>1</dim>
					<dim>32</dim>
					<dim>1</dim>
					<dim>1</dim>
				</port>
			</input>
			<output>
				<port id="2" precision="FP32" names="209_1">
					<dim>1</dim>
					<dim>32</dim>
					<dim>112</dim>
					<dim>192</dim>
				</port>
			</output>
		</layer>
		<layer id="73" name="__module.model.22.m.0.1.ffn.0.act/aten::silu_/Swish_8" type="Swish" version="opset4">
			<input>
				<port id="0" precision="FP32">
					<dim>1</dim>
					<dim>32</dim>
					<dim>112</dim>
					<dim>192</dim>
				</port>
			</input>
			<output>
				<port id="1" precision="FP32" names="209,input.33">
					<dim>1</dim>
					<dim>32</dim>
					<dim>112</dim>
					<dim>192</dim>
				</port>
			</output>
		</layer>
		<layer id="74" name="self.model.4.m.0.cv2.conv.weight_compressed" type="Const" version="opset1">
			<data element_type="f16" shape="64, 32, 3, 3" offset="568520" size="36864" />
			<output>
				<port id="0" precision="FP16" names="self.model.4.m.0.cv2.conv.weight">
					<dim>64</dim>
					<dim>32</dim>
					<dim>3</dim>
					<dim>3</dim>
				</port>
			</output>
		</layer>
		<layer id="75" name="self.model.4.m.0.cv2.conv.weight" type="Convert" version="opset1">
			<data destination_type="f32" />
			<rt_info>
				<attribute name="decompression" version="0" />
			</rt_info>
			<input>
				<port id="0" precision="FP16">
					<dim>64</dim>
					<dim>32</dim>
					<dim>3</dim>
					<dim>3</dim>
				</port>
			</input>
			<output>
				<port id="1" precision="FP32">
					<dim>64</dim>
					<dim>32</dim>
					<dim>3</dim>
					<dim>3</dim>
				</port>
			</output>
		</layer>
		<layer id="76" name="__module.model.4.m.0.cv2.conv/aten::_convolution/Convolution" type="Convolution" version="opset1">
			<data strides="1, 1" dilations="1, 1" pads_begin="1, 1" pads_end="1, 1" auto_pad="explicit" />
			<input>
				<port id="0" precision="FP32">
					<dim>1</dim>
					<dim>32</dim>
					<dim>112</dim>
					<dim>192</dim>
				</port>
				<port id="1" precision="FP32">
					<dim>64</dim>
					<dim>32</dim>
					<dim>3</dim>
					<dim>3</dim>
				</port>
			</input>
			<output>
				<port id="2" precision="FP32">
					<dim>1</dim>
					<dim>64</dim>
					<dim>112</dim>
					<dim>192</dim>
				</port>
			</output>
		</layer>
		<layer id="77" name="__module.model.4.m.0.cv2.conv/aten::_convolution/Reshape_compressed" type="Const" version="opset1">
			<data element_type="f16" shape="1, 64, 1, 1" offset="605384" size="128" />
			<output>
				<port id="0" precision="FP16">
					<dim>1</dim>
					<dim>64</dim>
					<dim>1</dim>
					<dim>1</dim>
				</port>
			</output>
		</layer>
		<layer id="78" name="__module.model.4.m.0.cv2.conv/aten::_convolution/Reshape" type="Convert" version="opset1">
			<data destination_type="f32" />
			<rt_info>
				<attribute name="decompression" version="0" />
			</rt_info>
			<input>
				<port id="0" precision="FP16">
					<dim>1</dim>
					<dim>64</dim>
					<dim>1</dim>
					<dim>1</dim>
				</port>
			</input>
			<output>
				<port id="1" precision="FP32">
					<dim>1</dim>
					<dim>64</dim>
					<dim>1</dim>
					<dim>1</dim>
				</port>
			</output>
		</layer>
		<layer id="79" name="__module.model.4.m.0.cv2.conv/aten::_convolution/Add" type="Add" version="opset1">
			<data auto_broadcast="numpy" />
			<input>
				<port id="0" precision="FP32">
					<dim>1</dim>
					<dim>64</dim>
					<dim>112</dim>
					<dim>192</dim>
				</port>
				<port id="1" precision="FP32">
					<dim>1</dim>
					<dim>64</dim>
					<dim>1</dim>
					<dim>1</dim>
				</port>
			</input>
			<output>
				<port id="2" precision="FP32" names="218_1">
					<dim>1</dim>
					<dim>64</dim>
					<dim>112</dim>
					<dim>192</dim>
				</port>
			</output>
		</layer>
		<layer id="80" name="__module.model.22.m.0.1.ffn.0.act/aten::silu_/Swish_9" type="Swish" version="opset4">
			<input>
				<port id="0" precision="FP32">
					<dim>1</dim>
					<dim>64</dim>
					<dim>112</dim>
					<dim>192</dim>
				</port>
			</input>
			<output>
				<port id="1" precision="FP32" names="218,input.37">
					<dim>1</dim>
					<dim>64</dim>
					<dim>112</dim>
					<dim>192</dim>
				</port>
			</output>
		</layer>
		<layer id="81" name="__module.model.4.m.0/aten::add/Add" type="Add" version="opset1">
			<data auto_broadcast="numpy" />
			<input>
				<port id="0" precision="FP32">
					<dim>1</dim>
					<dim>64</dim>
					<dim>112</dim>
					<dim>192</dim>
				</port>
				<port id="1" precision="FP32">
					<dim>1</dim>
					<dim>64</dim>
					<dim>112</dim>
					<dim>192</dim>
				</port>
			</input>
			<output>
				<port id="2" precision="FP32" names="220">
					<dim>1</dim>
					<dim>64</dim>
					<dim>112</dim>
					<dim>192</dim>
				</port>
			</output>
		</layer>
		<layer id="82" name="__module.model.4/aten::cat/Concat" type="Concat" version="opset1">
			<data axis="1" />
			<input>
				<port id="0" precision="FP32">
					<dim>1</dim>
					<dim>64</dim>
					<dim>112</dim>
					<dim>192</dim>
				</port>
				<port id="1" precision="FP32">
					<dim>1</dim>
					<dim>64</dim>
					<dim>112</dim>
					<dim>192</dim>
				</port>
				<port id="2" precision="FP32">
					<dim>1</dim>
					<dim>64</dim>
					<dim>112</dim>
					<dim>192</dim>
				</port>
			</input>
			<output>
				<port id="3" precision="FP32" names="222,input.39">
					<dim>1</dim>
					<dim>192</dim>
					<dim>112</dim>
					<dim>192</dim>
				</port>
			</output>
		</layer>
		<layer id="83" name="self.model.4.cv2.conv.weight_compressed" type="Const" version="opset1">
			<data element_type="f16" shape="256, 192, 1, 1" offset="605512" size="98304" />
			<output>
				<port id="0" precision="FP16" names="self.model.4.cv2.conv.weight">
					<dim>256</dim>
					<dim>192</dim>
					<dim>1</dim>
					<dim>1</dim>
				</port>
			</output>
		</layer>
		<layer id="84" name="self.model.4.cv2.conv.weight" type="Convert" version="opset1">
			<data destination_type="f32" />
			<rt_info>
				<attribute name="decompression" version="0" />
			</rt_info>
			<input>
				<port id="0" precision="FP16">
					<dim>256</dim>
					<dim>192</dim>
					<dim>1</dim>
					<dim>1</dim>
				</port>
			</input>
			<output>
				<port id="1" precision="FP32">
					<dim>256</dim>
					<dim>192</dim>
					<dim>1</dim>
					<dim>1</dim>
				</port>
			</output>
		</layer>
		<layer id="85" name="__module.model.4.cv2.conv/aten::_convolution/Convolution" type="Convolution" version="opset1">
			<data strides="1, 1" dilations="1, 1" pads_begin="0, 0" pads_end="0, 0" auto_pad="explicit" />
			<input>
				<port id="0" precision="FP32">
					<dim>1</dim>
					<dim>192</dim>
					<dim>112</dim>
					<dim>192</dim>
				</port>
				<port id="1" precision="FP32">
					<dim>256</dim>
					<dim>192</dim>
					<dim>1</dim>
					<dim>1</dim>
				</port>
			</input>
			<output>
				<port id="2" precision="FP32">
					<dim>1</dim>
					<dim>256</dim>
					<dim>112</dim>
					<dim>192</dim>
				</port>
			</output>
		</layer>
		<layer id="86" name="__module.model.4.cv2.conv/aten::_convolution/Reshape_compressed" type="Const" version="opset1">
			<data element_type="f16" shape="1, 256, 1, 1" offset="703816" size="512" />
			<output>
				<port id="0" precision="FP16">
					<dim>1</dim>
					<dim>256</dim>
					<dim>1</dim>
					<dim>1</dim>
				</port>
			</output>
		</layer>
		<layer id="87" name="__module.model.4.cv2.conv/aten::_convolution/Reshape" type="Convert" version="opset1">
			<data destination_type="f32" />
			<rt_info>
				<attribute name="decompression" version="0" />
			</rt_info>
			<input>
				<port id="0" precision="FP16">
					<dim>1</dim>
					<dim>256</dim>
					<dim>1</dim>
					<dim>1</dim>
				</port>
			</input>
			<output>
				<port id="1" precision="FP32">
					<dim>1</dim>
					<dim>256</dim>
					<dim>1</dim>
					<dim>1</dim>
				</port>
			</output>
		</layer>
		<layer id="88" name="__module.model.4.cv2.conv/aten::_convolution/Add" type="Add" version="opset1">
			<data auto_broadcast="numpy" />
			<input>
				<port id="0" precision="FP32">
					<dim>1</dim>
					<dim>256</dim>
					<dim>112</dim>
					<dim>192</dim>
				</port>
				<port id="1" precision="FP32">
					<dim>1</dim>
					<dim>256</dim>
					<dim>1</dim>
					<dim>1</dim>
				</port>
			</input>
			<output>
				<port id="2" precision="FP32" names="230_1">
					<dim>1</dim>
					<dim>256</dim>
					<dim>112</dim>
					<dim>192</dim>
				</port>
			</output>
		</layer>
		<layer id="89" name="__module.model.22.m.0.1.ffn.0.act/aten::silu_/Swish_10" type="Swish" version="opset4">
			<input>
				<port id="0" precision="FP32">
					<dim>1</dim>
					<dim>256</dim>
					<dim>112</dim>
					<dim>192</dim>
				</port>
			</input>
			<output>
				<port id="1" precision="FP32" names="230,input.41">
					<dim>1</dim>
					<dim>256</dim>
					<dim>112</dim>
					<dim>192</dim>
				</port>
			</output>
		</layer>
		<layer id="90" name="self.model.5.conv.weight_compressed" type="Const" version="opset1">
			<data element_type="f16" shape="256, 256, 3, 3" offset="704328" size="1179648" />
			<output>
				<port id="0" precision="FP16" names="self.model.5.conv.weight">
					<dim>256</dim>
					<dim>256</dim>
					<dim>3</dim>
					<dim>3</dim>
				</port>
			</output>
		</layer>
		<layer id="91" name="self.model.5.conv.weight" type="Convert" version="opset1">
			<data destination_type="f32" />
			<rt_info>
				<attribute name="decompression" version="0" />
			</rt_info>
			<input>
				<port id="0" precision="FP16">
					<dim>256</dim>
					<dim>256</dim>
					<dim>3</dim>
					<dim>3</dim>
				</port>
			</input>
			<output>
				<port id="1" precision="FP32">
					<dim>256</dim>
					<dim>256</dim>
					<dim>3</dim>
					<dim>3</dim>
				</port>
			</output>
		</layer>
		<layer id="92" name="__module.model.5.conv/aten::_convolution/Convolution" type="Convolution" version="opset1">
			<data strides="2, 2" dilations="1, 1" pads_begin="1, 1" pads_end="1, 1" auto_pad="explicit" />
			<input>
				<port id="0" precision="FP32">
					<dim>1</dim>
					<dim>256</dim>
					<dim>112</dim>
					<dim>192</dim>
				</port>
				<port id="1" precision="FP32">
					<dim>256</dim>
					<dim>256</dim>
					<dim>3</dim>
					<dim>3</dim>
				</port>
			</input>
			<output>
				<port id="2" precision="FP32">
					<dim>1</dim>
					<dim>256</dim>
					<dim>56</dim>
					<dim>96</dim>
				</port>
			</output>
		</layer>
		<layer id="93" name="__module.model.5.conv/aten::_convolution/Reshape_compressed" type="Const" version="opset1">
			<data element_type="f16" shape="1, 256, 1, 1" offset="1883976" size="512" />
			<output>
				<port id="0" precision="FP16">
					<dim>1</dim>
					<dim>256</dim>
					<dim>1</dim>
					<dim>1</dim>
				</port>
			</output>
		</layer>
		<layer id="94" name="__module.model.5.conv/aten::_convolution/Reshape" type="Convert" version="opset1">
			<data destination_type="f32" />
			<rt_info>
				<attribute name="decompression" version="0" />
			</rt_info>
			<input>
				<port id="0" precision="FP16">
					<dim>1</dim>
					<dim>256</dim>
					<dim>1</dim>
					<dim>1</dim>
				</port>
			</input>
			<output>
				<port id="1" precision="FP32">
					<dim>1</dim>
					<dim>256</dim>
					<dim>1</dim>
					<dim>1</dim>
				</port>
			</output>
		</layer>
		<layer id="95" name="__module.model.5.conv/aten::_convolution/Add" type="Add" version="opset1">
			<data auto_broadcast="numpy" />
			<input>
				<port id="0" precision="FP32">
					<dim>1</dim>
					<dim>256</dim>
					<dim>56</dim>
					<dim>96</dim>
				</port>
				<port id="1" precision="FP32">
					<dim>1</dim>
					<dim>256</dim>
					<dim>1</dim>
					<dim>1</dim>
				</port>
			</input>
			<output>
				<port id="2" precision="FP32" names="244_1">
					<dim>1</dim>
					<dim>256</dim>
					<dim>56</dim>
					<dim>96</dim>
				</port>
			</output>
		</layer>
		<layer id="96" name="__module.model.22.m.0.1.ffn.0.act/aten::silu_/Swish_11" type="Swish" version="opset4">
			<input>
				<port id="0" precision="FP32">
					<dim>1</dim>
					<dim>256</dim>
					<dim>56</dim>
					<dim>96</dim>
				</port>
			</input>
			<output>
				<port id="1" precision="FP32" names="244,input.45">
					<dim>1</dim>
					<dim>256</dim>
					<dim>56</dim>
					<dim>96</dim>
				</port>
			</output>
		</layer>
		<layer id="97" name="self.model.6.cv1.conv.weight_compressed" type="Const" version="opset1">
			<data element_type="f16" shape="256, 256, 1, 1" offset="1884488" size="131072" />
			<output>
				<port id="0" precision="FP16" names="self.model.6.cv1.conv.weight">
					<dim>256</dim>
					<dim>256</dim>
					<dim>1</dim>
					<dim>1</dim>
				</port>
			</output>
		</layer>
		<layer id="98" name="self.model.6.cv1.conv.weight" type="Convert" version="opset1">
			<data destination_type="f32" />
			<rt_info>
				<attribute name="decompression" version="0" />
			</rt_info>
			<input>
				<port id="0" precision="FP16">
					<dim>256</dim>
					<dim>256</dim>
					<dim>1</dim>
					<dim>1</dim>
				</port>
			</input>
			<output>
				<port id="1" precision="FP32">
					<dim>256</dim>
					<dim>256</dim>
					<dim>1</dim>
					<dim>1</dim>
				</port>
			</output>
		</layer>
		<layer id="99" name="__module.model.6.cv1.conv/aten::_convolution/Convolution" type="Convolution" version="opset1">
			<data strides="1, 1" dilations="1, 1" pads_begin="0, 0" pads_end="0, 0" auto_pad="explicit" />
			<input>
				<port id="0" precision="FP32">
					<dim>1</dim>
					<dim>256</dim>
					<dim>56</dim>
					<dim>96</dim>
				</port>
				<port id="1" precision="FP32">
					<dim>256</dim>
					<dim>256</dim>
					<dim>1</dim>
					<dim>1</dim>
				</port>
			</input>
			<output>
				<port id="2" precision="FP32">
					<dim>1</dim>
					<dim>256</dim>
					<dim>56</dim>
					<dim>96</dim>
				</port>
			</output>
		</layer>
		<layer id="100" name="__module.model.6.cv1.conv/aten::_convolution/Reshape_compressed" type="Const" version="opset1">
			<data element_type="f16" shape="1, 256, 1, 1" offset="2015560" size="512" />
			<output>
				<port id="0" precision="FP16">
					<dim>1</dim>
					<dim>256</dim>
					<dim>1</dim>
					<dim>1</dim>
				</port>
			</output>
		</layer>
		<layer id="101" name="__module.model.6.cv1.conv/aten::_convolution/Reshape" type="Convert" version="opset1">
			<data destination_type="f32" />
			<rt_info>
				<attribute name="decompression" version="0" />
			</rt_info>
			<input>
				<port id="0" precision="FP16">
					<dim>1</dim>
					<dim>256</dim>
					<dim>1</dim>
					<dim>1</dim>
				</port>
			</input>
			<output>
				<port id="1" precision="FP32">
					<dim>1</dim>
					<dim>256</dim>
					<dim>1</dim>
					<dim>1</dim>
				</port>
			</output>
		</layer>
		<layer id="102" name="__module.model.6.cv1.conv/aten::_convolution/Add" type="Add" version="opset1">
			<data auto_broadcast="numpy" />
			<input>
				<port id="0" precision="FP32">
					<dim>1</dim>
					<dim>256</dim>
					<dim>56</dim>
					<dim>96</dim>
				</port>
				<port id="1" precision="FP32">
					<dim>1</dim>
					<dim>256</dim>
					<dim>1</dim>
					<dim>1</dim>
				</port>
			</input>
			<output>
				<port id="2" precision="FP32" names="262_1">
					<dim>1</dim>
					<dim>256</dim>
					<dim>56</dim>
					<dim>96</dim>
				</port>
			</output>
		</layer>
		<layer id="103" name="__module.model.22.m.0.1.ffn.0.act/aten::silu_/Swish_12" type="Swish" version="opset4">
			<input>
				<port id="0" precision="FP32">
					<dim>1</dim>
					<dim>256</dim>
					<dim>56</dim>
					<dim>96</dim>
				</port>
			</input>
			<output>
				<port id="1" precision="FP32" names="262,input.49">
					<dim>1</dim>
					<dim>256</dim>
					<dim>56</dim>
					<dim>96</dim>
				</port>
			</output>
		</layer>
		<layer id="104" name="250" type="Const" version="opset1">
			<data element_type="i64" shape="" offset="160000" size="8" />
			<output>
				<port id="0" precision="I64" names="250" />
			</output>
		</layer>
		<layer id="105" name="Constant_792" type="Const" version="opset1">
			<data element_type="i64" shape="2" offset="2016072" size="16" />
			<output>
				<port id="0" precision="I64">
					<dim>2</dim>
				</port>
			</output>
		</layer>
		<layer id="106" name="__module.model.6/aten::split_with_sizes/VariadicSplit" type="VariadicSplit" version="opset1">
			<input>
				<port id="0" precision="FP32">
					<dim>1</dim>
					<dim>256</dim>
					<dim>56</dim>
					<dim>96</dim>
				</port>
				<port id="1" precision="I64" />
				<port id="2" precision="I64">
					<dim>2</dim>
				</port>
			</input>
			<output>
				<port id="3" precision="FP32" names="266">
					<dim>1</dim>
					<dim>128</dim>
					<dim>56</dim>
					<dim>96</dim>
				</port>
				<port id="4" precision="FP32" names="267,input.51">
					<dim>1</dim>
					<dim>128</dim>
					<dim>56</dim>
					<dim>96</dim>
				</port>
			</output>
		</layer>
		<layer id="107" name="self.model.6.m.0.cv1.conv.weight_compressed" type="Const" version="opset1">
			<data element_type="f16" shape="64, 128, 1, 1" offset="2016088" size="16384" />
			<output>
				<port id="0" precision="FP16" names="self.model.6.m.0.cv1.conv.weight">
					<dim>64</dim>
					<dim>128</dim>
					<dim>1</dim>
					<dim>1</dim>
				</port>
			</output>
		</layer>
		<layer id="108" name="self.model.6.m.0.cv1.conv.weight" type="Convert" version="opset1">
			<data destination_type="f32" />
			<rt_info>
				<attribute name="decompression" version="0" />
			</rt_info>
			<input>
				<port id="0" precision="FP16">
					<dim>64</dim>
					<dim>128</dim>
					<dim>1</dim>
					<dim>1</dim>
				</port>
			</input>
			<output>
				<port id="1" precision="FP32">
					<dim>64</dim>
					<dim>128</dim>
					<dim>1</dim>
					<dim>1</dim>
				</port>
			</output>
		</layer>
		<layer id="109" name="__module.model.6.m.0.cv1.conv/aten::_convolution/Convolution" type="Convolution" version="opset1">
			<data strides="1, 1" dilations="1, 1" pads_begin="0, 0" pads_end="0, 0" auto_pad="explicit" />
			<input>
				<port id="0" precision="FP32">
					<dim>1</dim>
					<dim>128</dim>
					<dim>56</dim>
					<dim>96</dim>
				</port>
				<port id="1" precision="FP32">
					<dim>64</dim>
					<dim>128</dim>
					<dim>1</dim>
					<dim>1</dim>
				</port>
			</input>
			<output>
				<port id="2" precision="FP32">
					<dim>1</dim>
					<dim>64</dim>
					<dim>56</dim>
					<dim>96</dim>
				</port>
			</output>
		</layer>
		<layer id="110" name="__module.model.6.m.0.cv1.conv/aten::_convolution/Reshape_compressed" type="Const" version="opset1">
			<data element_type="f16" shape="1, 64, 1, 1" offset="2032472" size="128" />
			<output>
				<port id="0" precision="FP16">
					<dim>1</dim>
					<dim>64</dim>
					<dim>1</dim>
					<dim>1</dim>
				</port>
			</output>
		</layer>
		<layer id="111" name="__module.model.6.m.0.cv1.conv/aten::_convolution/Reshape" type="Convert" version="opset1">
			<data destination_type="f32" />
			<rt_info>
				<attribute name="decompression" version="0" />
			</rt_info>
			<input>
				<port id="0" precision="FP16">
					<dim>1</dim>
					<dim>64</dim>
					<dim>1</dim>
					<dim>1</dim>
				</port>
			</input>
			<output>
				<port id="1" precision="FP32">
					<dim>1</dim>
					<dim>64</dim>
					<dim>1</dim>
					<dim>1</dim>
				</port>
			</output>
		</layer>
		<layer id="112" name="__module.model.6.m.0.cv1.conv/aten::_convolution/Add" type="Add" version="opset1">
			<data auto_broadcast="numpy" />
			<input>
				<port id="0" precision="FP32">
					<dim>1</dim>
					<dim>64</dim>
					<dim>56</dim>
					<dim>96</dim>
				</port>
				<port id="1" precision="FP32">
					<dim>1</dim>
					<dim>64</dim>
					<dim>1</dim>
					<dim>1</dim>
				</port>
			</input>
			<output>
				<port id="2" precision="FP32" names="279_1">
					<dim>1</dim>
					<dim>64</dim>
					<dim>56</dim>
					<dim>96</dim>
				</port>
			</output>
		</layer>
		<layer id="113" name="__module.model.22.m.0.1.ffn.0.act/aten::silu_/Swish_13" type="Swish" version="opset4">
			<input>
				<port id="0" precision="FP32">
					<dim>1</dim>
					<dim>64</dim>
					<dim>56</dim>
					<dim>96</dim>
				</port>
			</input>
			<output>
				<port id="1" precision="FP32" names="279,input.53">
					<dim>1</dim>
					<dim>64</dim>
					<dim>56</dim>
					<dim>96</dim>
				</port>
			</output>
		</layer>
		<layer id="114" name="self.model.6.m.0.m.0.cv1.conv.weight_compressed" type="Const" version="opset1">
			<data element_type="f16" shape="64, 64, 3, 3" offset="2032600" size="73728" />
			<output>
				<port id="0" precision="FP16" names="self.model.6.m.0.m.0.cv1.conv.weight">
					<dim>64</dim>
					<dim>64</dim>
					<dim>3</dim>
					<dim>3</dim>
				</port>
			</output>
		</layer>
		<layer id="115" name="self.model.6.m.0.m.0.cv1.conv.weight" type="Convert" version="opset1">
			<data destination_type="f32" />
			<rt_info>
				<attribute name="decompression" version="0" />
			</rt_info>
			<input>
				<port id="0" precision="FP16">
					<dim>64</dim>
					<dim>64</dim>
					<dim>3</dim>
					<dim>3</dim>
				</port>
			</input>
			<output>
				<port id="1" precision="FP32">
					<dim>64</dim>
					<dim>64</dim>
					<dim>3</dim>
					<dim>3</dim>
				</port>
			</output>
		</layer>
		<layer id="116" name="__module.model.6.m.0.m.0.cv1.conv/aten::_convolution/Convolution" type="Convolution" version="opset1">
			<data strides="1, 1" dilations="1, 1" pads_begin="1, 1" pads_end="1, 1" auto_pad="explicit" />
			<input>
				<port id="0" precision="FP32">
					<dim>1</dim>
					<dim>64</dim>
					<dim>56</dim>
					<dim>96</dim>
				</port>
				<port id="1" precision="FP32">
					<dim>64</dim>
					<dim>64</dim>
					<dim>3</dim>
					<dim>3</dim>
				</port>
			</input>
			<output>
				<port id="2" precision="FP32">
					<dim>1</dim>
					<dim>64</dim>
					<dim>56</dim>
					<dim>96</dim>
				</port>
			</output>
		</layer>
		<layer id="117" name="__module.model.6.m.0.m.0.cv1.conv/aten::_convolution/Reshape_compressed" type="Const" version="opset1">
			<data element_type="f16" shape="1, 64, 1, 1" offset="2106328" size="128" />
			<output>
				<port id="0" precision="FP16">
					<dim>1</dim>
					<dim>64</dim>
					<dim>1</dim>
					<dim>1</dim>
				</port>
			</output>
		</layer>
		<layer id="118" name="__module.model.6.m.0.m.0.cv1.conv/aten::_convolution/Reshape" type="Convert" version="opset1">
			<data destination_type="f32" />
			<rt_info>
				<attribute name="decompression" version="0" />
			</rt_info>
			<input>
				<port id="0" precision="FP16">
					<dim>1</dim>
					<dim>64</dim>
					<dim>1</dim>
					<dim>1</dim>
				</port>
			</input>
			<output>
				<port id="1" precision="FP32">
					<dim>1</dim>
					<dim>64</dim>
					<dim>1</dim>
					<dim>1</dim>
				</port>
			</output>
		</layer>
		<layer id="119" name="__module.model.6.m.0.m.0.cv1.conv/aten::_convolution/Add" type="Add" version="opset1">
			<data auto_broadcast="numpy" />
			<input>
				<port id="0" precision="FP32">
					<dim>1</dim>
					<dim>64</dim>
					<dim>56</dim>
					<dim>96</dim>
				</port>
				<port id="1" precision="FP32">
					<dim>1</dim>
					<dim>64</dim>
					<dim>1</dim>
					<dim>1</dim>
				</port>
			</input>
			<output>
				<port id="2" precision="FP32" names="292_1">
					<dim>1</dim>
					<dim>64</dim>
					<dim>56</dim>
					<dim>96</dim>
				</port>
			</output>
		</layer>
		<layer id="120" name="__module.model.22.m.0.1.ffn.0.act/aten::silu_/Swish_14" type="Swish" version="opset4">
			<input>
				<port id="0" precision="FP32">
					<dim>1</dim>
					<dim>64</dim>
					<dim>56</dim>
					<dim>96</dim>
				</port>
			</input>
			<output>
				<port id="1" precision="FP32" names="292,input.57">
					<dim>1</dim>
					<dim>64</dim>
					<dim>56</dim>
					<dim>96</dim>
				</port>
			</output>
		</layer>
		<layer id="121" name="self.model.6.m.0.m.0.cv2.conv.weight_compressed" type="Const" version="opset1">
			<data element_type="f16" shape="64, 64, 3, 3" offset="2106456" size="73728" />
			<output>
				<port id="0" precision="FP16" names="self.model.6.m.0.m.0.cv2.conv.weight">
					<dim>64</dim>
					<dim>64</dim>
					<dim>3</dim>
					<dim>3</dim>
				</port>
			</output>
		</layer>
		<layer id="122" name="self.model.6.m.0.m.0.cv2.conv.weight" type="Convert" version="opset1">
			<data destination_type="f32" />
			<rt_info>
				<attribute name="decompression" version="0" />
			</rt_info>
			<input>
				<port id="0" precision="FP16">
					<dim>64</dim>
					<dim>64</dim>
					<dim>3</dim>
					<dim>3</dim>
				</port>
			</input>
			<output>
				<port id="1" precision="FP32">
					<dim>64</dim>
					<dim>64</dim>
					<dim>3</dim>
					<dim>3</dim>
				</port>
			</output>
		</layer>
		<layer id="123" name="__module.model.6.m.0.m.0.cv2.conv/aten::_convolution/Convolution" type="Convolution" version="opset1">
			<data strides="1, 1" dilations="1, 1" pads_begin="1, 1" pads_end="1, 1" auto_pad="explicit" />
			<input>
				<port id="0" precision="FP32">
					<dim>1</dim>
					<dim>64</dim>
					<dim>56</dim>
					<dim>96</dim>
				</port>
				<port id="1" precision="FP32">
					<dim>64</dim>
					<dim>64</dim>
					<dim>3</dim>
					<dim>3</dim>
				</port>
			</input>
			<output>
				<port id="2" precision="FP32">
					<dim>1</dim>
					<dim>64</dim>
					<dim>56</dim>
					<dim>96</dim>
				</port>
			</output>
		</layer>
		<layer id="124" name="__module.model.6.m.0.m.0.cv2.conv/aten::_convolution/Reshape_compressed" type="Const" version="opset1">
			<data element_type="f16" shape="1, 64, 1, 1" offset="2180184" size="128" />
			<output>
				<port id="0" precision="FP16">
					<dim>1</dim>
					<dim>64</dim>
					<dim>1</dim>
					<dim>1</dim>
				</port>
			</output>
		</layer>
		<layer id="125" name="__module.model.6.m.0.m.0.cv2.conv/aten::_convolution/Reshape" type="Convert" version="opset1">
			<data destination_type="f32" />
			<rt_info>
				<attribute name="decompression" version="0" />
			</rt_info>
			<input>
				<port id="0" precision="FP16">
					<dim>1</dim>
					<dim>64</dim>
					<dim>1</dim>
					<dim>1</dim>
				</port>
			</input>
			<output>
				<port id="1" precision="FP32">
					<dim>1</dim>
					<dim>64</dim>
					<dim>1</dim>
					<dim>1</dim>
				</port>
			</output>
		</layer>
		<layer id="126" name="__module.model.6.m.0.m.0.cv2.conv/aten::_convolution/Add" type="Add" version="opset1">
			<data auto_broadcast="numpy" />
			<input>
				<port id="0" precision="FP32">
					<dim>1</dim>
					<dim>64</dim>
					<dim>56</dim>
					<dim>96</dim>
				</port>
				<port id="1" precision="FP32">
					<dim>1</dim>
					<dim>64</dim>
					<dim>1</dim>
					<dim>1</dim>
				</port>
			</input>
			<output>
				<port id="2" precision="FP32" names="301_1">
					<dim>1</dim>
					<dim>64</dim>
					<dim>56</dim>
					<dim>96</dim>
				</port>
			</output>
		</layer>
		<layer id="127" name="__module.model.22.m.0.1.ffn.0.act/aten::silu_/Swish_15" type="Swish" version="opset4">
			<input>
				<port id="0" precision="FP32">
					<dim>1</dim>
					<dim>64</dim>
					<dim>56</dim>
					<dim>96</dim>
				</port>
			</input>
			<output>
				<port id="1" precision="FP32" names="301,input.61">
					<dim>1</dim>
					<dim>64</dim>
					<dim>56</dim>
					<dim>96</dim>
				</port>
			</output>
		</layer>
		<layer id="128" name="__module.model.6.m.0.m.0/aten::add/Add" type="Add" version="opset1">
			<data auto_broadcast="numpy" />
			<input>
				<port id="0" precision="FP32">
					<dim>1</dim>
					<dim>64</dim>
					<dim>56</dim>
					<dim>96</dim>
				</port>
				<port id="1" precision="FP32">
					<dim>1</dim>
					<dim>64</dim>
					<dim>56</dim>
					<dim>96</dim>
				</port>
			</input>
			<output>
				<port id="2" precision="FP32" names="303,input.63">
					<dim>1</dim>
					<dim>64</dim>
					<dim>56</dim>
					<dim>96</dim>
				</port>
			</output>
		</layer>
		<layer id="129" name="self.model.6.m.0.m.1.cv1.conv.weight_compressed" type="Const" version="opset1">
			<data element_type="f16" shape="64, 64, 3, 3" offset="2180312" size="73728" />
			<output>
				<port id="0" precision="FP16" names="self.model.6.m.0.m.1.cv1.conv.weight">
					<dim>64</dim>
					<dim>64</dim>
					<dim>3</dim>
					<dim>3</dim>
				</port>
			</output>
		</layer>
		<layer id="130" name="self.model.6.m.0.m.1.cv1.conv.weight" type="Convert" version="opset1">
			<data destination_type="f32" />
			<rt_info>
				<attribute name="decompression" version="0" />
			</rt_info>
			<input>
				<port id="0" precision="FP16">
					<dim>64</dim>
					<dim>64</dim>
					<dim>3</dim>
					<dim>3</dim>
				</port>
			</input>
			<output>
				<port id="1" precision="FP32">
					<dim>64</dim>
					<dim>64</dim>
					<dim>3</dim>
					<dim>3</dim>
				</port>
			</output>
		</layer>
		<layer id="131" name="__module.model.6.m.0.m.1.cv1.conv/aten::_convolution/Convolution" type="Convolution" version="opset1">
			<data strides="1, 1" dilations="1, 1" pads_begin="1, 1" pads_end="1, 1" auto_pad="explicit" />
			<input>
				<port id="0" precision="FP32">
					<dim>1</dim>
					<dim>64</dim>
					<dim>56</dim>
					<dim>96</dim>
				</port>
				<port id="1" precision="FP32">
					<dim>64</dim>
					<dim>64</dim>
					<dim>3</dim>
					<dim>3</dim>
				</port>
			</input>
			<output>
				<port id="2" precision="FP32">
					<dim>1</dim>
					<dim>64</dim>
					<dim>56</dim>
					<dim>96</dim>
				</port>
			</output>
		</layer>
		<layer id="132" name="__module.model.6.m.0.m.1.cv1.conv/aten::_convolution/Reshape_compressed" type="Const" version="opset1">
			<data element_type="f16" shape="1, 64, 1, 1" offset="2254040" size="128" />
			<output>
				<port id="0" precision="FP16">
					<dim>1</dim>
					<dim>64</dim>
					<dim>1</dim>
					<dim>1</dim>
				</port>
			</output>
		</layer>
		<layer id="133" name="__module.model.6.m.0.m.1.cv1.conv/aten::_convolution/Reshape" type="Convert" version="opset1">
			<data destination_type="f32" />
			<rt_info>
				<attribute name="decompression" version="0" />
			</rt_info>
			<input>
				<port id="0" precision="FP16">
					<dim>1</dim>
					<dim>64</dim>
					<dim>1</dim>
					<dim>1</dim>
				</port>
			</input>
			<output>
				<port id="1" precision="FP32">
					<dim>1</dim>
					<dim>64</dim>
					<dim>1</dim>
					<dim>1</dim>
				</port>
			</output>
		</layer>
		<layer id="134" name="__module.model.6.m.0.m.1.cv1.conv/aten::_convolution/Add" type="Add" version="opset1">
			<data auto_broadcast="numpy" />
			<input>
				<port id="0" precision="FP32">
					<dim>1</dim>
					<dim>64</dim>
					<dim>56</dim>
					<dim>96</dim>
				</port>
				<port id="1" precision="FP32">
					<dim>1</dim>
					<dim>64</dim>
					<dim>1</dim>
					<dim>1</dim>
				</port>
			</input>
			<output>
				<port id="2" precision="FP32" names="313_1">
					<dim>1</dim>
					<dim>64</dim>
					<dim>56</dim>
					<dim>96</dim>
				</port>
			</output>
		</layer>
		<layer id="135" name="__module.model.22.m.0.1.ffn.0.act/aten::silu_/Swish_16" type="Swish" version="opset4">
			<input>
				<port id="0" precision="FP32">
					<dim>1</dim>
					<dim>64</dim>
					<dim>56</dim>
					<dim>96</dim>
				</port>
			</input>
			<output>
				<port id="1" precision="FP32" names="313,input.65">
					<dim>1</dim>
					<dim>64</dim>
					<dim>56</dim>
					<dim>96</dim>
				</port>
			</output>
		</layer>
		<layer id="136" name="self.model.6.m.0.m.1.cv2.conv.weight_compressed" type="Const" version="opset1">
			<data element_type="f16" shape="64, 64, 3, 3" offset="2254168" size="73728" />
			<output>
				<port id="0" precision="FP16" names="self.model.6.m.0.m.1.cv2.conv.weight">
					<dim>64</dim>
					<dim>64</dim>
					<dim>3</dim>
					<dim>3</dim>
				</port>
			</output>
		</layer>
		<layer id="137" name="self.model.6.m.0.m.1.cv2.conv.weight" type="Convert" version="opset1">
			<data destination_type="f32" />
			<rt_info>
				<attribute name="decompression" version="0" />
			</rt_info>
			<input>
				<port id="0" precision="FP16">
					<dim>64</dim>
					<dim>64</dim>
					<dim>3</dim>
					<dim>3</dim>
				</port>
			</input>
			<output>
				<port id="1" precision="FP32">
					<dim>64</dim>
					<dim>64</dim>
					<dim>3</dim>
					<dim>3</dim>
				</port>
			</output>
		</layer>
		<layer id="138" name="__module.model.6.m.0.m.1.cv2.conv/aten::_convolution/Convolution" type="Convolution" version="opset1">
			<data strides="1, 1" dilations="1, 1" pads_begin="1, 1" pads_end="1, 1" auto_pad="explicit" />
			<input>
				<port id="0" precision="FP32">
					<dim>1</dim>
					<dim>64</dim>
					<dim>56</dim>
					<dim>96</dim>
				</port>
				<port id="1" precision="FP32">
					<dim>64</dim>
					<dim>64</dim>
					<dim>3</dim>
					<dim>3</dim>
				</port>
			</input>
			<output>
				<port id="2" precision="FP32">
					<dim>1</dim>
					<dim>64</dim>
					<dim>56</dim>
					<dim>96</dim>
				</port>
			</output>
		</layer>
		<layer id="139" name="__module.model.6.m.0.m.1.cv2.conv/aten::_convolution/Reshape_compressed" type="Const" version="opset1">
			<data element_type="f16" shape="1, 64, 1, 1" offset="2327896" size="128" />
			<output>
				<port id="0" precision="FP16">
					<dim>1</dim>
					<dim>64</dim>
					<dim>1</dim>
					<dim>1</dim>
				</port>
			</output>
		</layer>
		<layer id="140" name="__module.model.6.m.0.m.1.cv2.conv/aten::_convolution/Reshape" type="Convert" version="opset1">
			<data destination_type="f32" />
			<rt_info>
				<attribute name="decompression" version="0" />
			</rt_info>
			<input>
				<port id="0" precision="FP16">
					<dim>1</dim>
					<dim>64</dim>
					<dim>1</dim>
					<dim>1</dim>
				</port>
			</input>
			<output>
				<port id="1" precision="FP32">
					<dim>1</dim>
					<dim>64</dim>
					<dim>1</dim>
					<dim>1</dim>
				</port>
			</output>
		</layer>
		<layer id="141" name="__module.model.6.m.0.m.1.cv2.conv/aten::_convolution/Add" type="Add" version="opset1">
			<data auto_broadcast="numpy" />
			<input>
				<port id="0" precision="FP32">
					<dim>1</dim>
					<dim>64</dim>
					<dim>56</dim>
					<dim>96</dim>
				</port>
				<port id="1" precision="FP32">
					<dim>1</dim>
					<dim>64</dim>
					<dim>1</dim>
					<dim>1</dim>
				</port>
			</input>
			<output>
				<port id="2" precision="FP32" names="322_1">
					<dim>1</dim>
					<dim>64</dim>
					<dim>56</dim>
					<dim>96</dim>
				</port>
			</output>
		</layer>
		<layer id="142" name="__module.model.22.m.0.1.ffn.0.act/aten::silu_/Swish_17" type="Swish" version="opset4">
			<input>
				<port id="0" precision="FP32">
					<dim>1</dim>
					<dim>64</dim>
					<dim>56</dim>
					<dim>96</dim>
				</port>
			</input>
			<output>
				<port id="1" precision="FP32" names="322,input.69">
					<dim>1</dim>
					<dim>64</dim>
					<dim>56</dim>
					<dim>96</dim>
				</port>
			</output>
		</layer>
		<layer id="143" name="__module.model.6.m.0.m.1/aten::add/Add" type="Add" version="opset1">
			<data auto_broadcast="numpy" />
			<input>
				<port id="0" precision="FP32">
					<dim>1</dim>
					<dim>64</dim>
					<dim>56</dim>
					<dim>96</dim>
				</port>
				<port id="1" precision="FP32">
					<dim>1</dim>
					<dim>64</dim>
					<dim>56</dim>
					<dim>96</dim>
				</port>
			</input>
			<output>
				<port id="2" precision="FP32" names="324">
					<dim>1</dim>
					<dim>64</dim>
					<dim>56</dim>
					<dim>96</dim>
				</port>
			</output>
		</layer>
		<layer id="144" name="self.model.6.m.0.cv2.conv.weight_compressed" type="Const" version="opset1">
			<data element_type="f16" shape="64, 128, 1, 1" offset="2328024" size="16384" />
			<output>
				<port id="0" precision="FP16" names="self.model.6.m.0.cv2.conv.weight">
					<dim>64</dim>
					<dim>128</dim>
					<dim>1</dim>
					<dim>1</dim>
				</port>
			</output>
		</layer>
		<layer id="145" name="self.model.6.m.0.cv2.conv.weight" type="Convert" version="opset1">
			<data destination_type="f32" />
			<rt_info>
				<attribute name="decompression" version="0" />
			</rt_info>
			<input>
				<port id="0" precision="FP16">
					<dim>64</dim>
					<dim>128</dim>
					<dim>1</dim>
					<dim>1</dim>
				</port>
			</input>
			<output>
				<port id="1" precision="FP32">
					<dim>64</dim>
					<dim>128</dim>
					<dim>1</dim>
					<dim>1</dim>
				</port>
			</output>
		</layer>
		<layer id="146" name="__module.model.6.m.0.cv2.conv/aten::_convolution/Convolution" type="Convolution" version="opset1">
			<data strides="1, 1" dilations="1, 1" pads_begin="0, 0" pads_end="0, 0" auto_pad="explicit" />
			<input>
				<port id="0" precision="FP32">
					<dim>1</dim>
					<dim>128</dim>
					<dim>56</dim>
					<dim>96</dim>
				</port>
				<port id="1" precision="FP32">
					<dim>64</dim>
					<dim>128</dim>
					<dim>1</dim>
					<dim>1</dim>
				</port>
			</input>
			<output>
				<port id="2" precision="FP32">
					<dim>1</dim>
					<dim>64</dim>
					<dim>56</dim>
					<dim>96</dim>
				</port>
			</output>
		</layer>
		<layer id="147" name="__module.model.6.m.0.cv2.conv/aten::_convolution/Reshape_compressed" type="Const" version="opset1">
			<data element_type="f16" shape="1, 64, 1, 1" offset="2344408" size="128" />
			<output>
				<port id="0" precision="FP16">
					<dim>1</dim>
					<dim>64</dim>
					<dim>1</dim>
					<dim>1</dim>
				</port>
			</output>
		</layer>
		<layer id="148" name="__module.model.6.m.0.cv2.conv/aten::_convolution/Reshape" type="Convert" version="opset1">
			<data destination_type="f32" />
			<rt_info>
				<attribute name="decompression" version="0" />
			</rt_info>
			<input>
				<port id="0" precision="FP16">
					<dim>1</dim>
					<dim>64</dim>
					<dim>1</dim>
					<dim>1</dim>
				</port>
			</input>
			<output>
				<port id="1" precision="FP32">
					<dim>1</dim>
					<dim>64</dim>
					<dim>1</dim>
					<dim>1</dim>
				</port>
			</output>
		</layer>
		<layer id="149" name="__module.model.6.m.0.cv2.conv/aten::_convolution/Add" type="Add" version="opset1">
			<data auto_broadcast="numpy" />
			<input>
				<port id="0" precision="FP32">
					<dim>1</dim>
					<dim>64</dim>
					<dim>56</dim>
					<dim>96</dim>
				</port>
				<port id="1" precision="FP32">
					<dim>1</dim>
					<dim>64</dim>
					<dim>1</dim>
					<dim>1</dim>
				</port>
			</input>
			<output>
				<port id="2" precision="FP32" names="332_1">
					<dim>1</dim>
					<dim>64</dim>
					<dim>56</dim>
					<dim>96</dim>
				</port>
			</output>
		</layer>
		<layer id="150" name="__module.model.22.m.0.1.ffn.0.act/aten::silu_/Swish_18" type="Swish" version="opset4">
			<input>
				<port id="0" precision="FP32">
					<dim>1</dim>
					<dim>64</dim>
					<dim>56</dim>
					<dim>96</dim>
				</port>
			</input>
			<output>
				<port id="1" precision="FP32" names="332,input.71">
					<dim>1</dim>
					<dim>64</dim>
					<dim>56</dim>
					<dim>96</dim>
				</port>
			</output>
		</layer>
		<layer id="151" name="__module.model.6.m.0/aten::cat/Concat" type="Concat" version="opset1">
			<data axis="1" />
			<input>
				<port id="0" precision="FP32">
					<dim>1</dim>
					<dim>64</dim>
					<dim>56</dim>
					<dim>96</dim>
				</port>
				<port id="1" precision="FP32">
					<dim>1</dim>
					<dim>64</dim>
					<dim>56</dim>
					<dim>96</dim>
				</port>
			</input>
			<output>
				<port id="2" precision="FP32" names="335,input.73">
					<dim>1</dim>
					<dim>128</dim>
					<dim>56</dim>
					<dim>96</dim>
				</port>
			</output>
		</layer>
		<layer id="152" name="self.model.6.m.0.cv3.conv.weight_compressed" type="Const" version="opset1">
			<data element_type="f16" shape="128, 128, 1, 1" offset="2344536" size="32768" />
			<output>
				<port id="0" precision="FP16" names="self.model.6.m.0.cv3.conv.weight">
					<dim>128</dim>
					<dim>128</dim>
					<dim>1</dim>
					<dim>1</dim>
				</port>
			</output>
		</layer>
		<layer id="153" name="self.model.6.m.0.cv3.conv.weight" type="Convert" version="opset1">
			<data destination_type="f32" />
			<rt_info>
				<attribute name="decompression" version="0" />
			</rt_info>
			<input>
				<port id="0" precision="FP16">
					<dim>128</dim>
					<dim>128</dim>
					<dim>1</dim>
					<dim>1</dim>
				</port>
			</input>
			<output>
				<port id="1" precision="FP32">
					<dim>128</dim>
					<dim>128</dim>
					<dim>1</dim>
					<dim>1</dim>
				</port>
			</output>
		</layer>
		<layer id="154" name="__module.model.6.m.0.cv3.conv/aten::_convolution/Convolution" type="Convolution" version="opset1">
			<data strides="1, 1" dilations="1, 1" pads_begin="0, 0" pads_end="0, 0" auto_pad="explicit" />
			<input>
				<port id="0" precision="FP32">
					<dim>1</dim>
					<dim>128</dim>
					<dim>56</dim>
					<dim>96</dim>
				</port>
				<port id="1" precision="FP32">
					<dim>128</dim>
					<dim>128</dim>
					<dim>1</dim>
					<dim>1</dim>
				</port>
			</input>
			<output>
				<port id="2" precision="FP32">
					<dim>1</dim>
					<dim>128</dim>
					<dim>56</dim>
					<dim>96</dim>
				</port>
			</output>
		</layer>
		<layer id="155" name="__module.model.6.m.0.cv3.conv/aten::_convolution/Reshape_compressed" type="Const" version="opset1">
			<data element_type="f16" shape="1, 128, 1, 1" offset="2377304" size="256" />
			<output>
				<port id="0" precision="FP16">
					<dim>1</dim>
					<dim>128</dim>
					<dim>1</dim>
					<dim>1</dim>
				</port>
			</output>
		</layer>
		<layer id="156" name="__module.model.6.m.0.cv3.conv/aten::_convolution/Reshape" type="Convert" version="opset1">
			<data destination_type="f32" />
			<rt_info>
				<attribute name="decompression" version="0" />
			</rt_info>
			<input>
				<port id="0" precision="FP16">
					<dim>1</dim>
					<dim>128</dim>
					<dim>1</dim>
					<dim>1</dim>
				</port>
			</input>
			<output>
				<port id="1" precision="FP32">
					<dim>1</dim>
					<dim>128</dim>
					<dim>1</dim>
					<dim>1</dim>
				</port>
			</output>
		</layer>
		<layer id="157" name="__module.model.6.m.0.cv3.conv/aten::_convolution/Add" type="Add" version="opset1">
			<data auto_broadcast="numpy" />
			<input>
				<port id="0" precision="FP32">
					<dim>1</dim>
					<dim>128</dim>
					<dim>56</dim>
					<dim>96</dim>
				</port>
				<port id="1" precision="FP32">
					<dim>1</dim>
					<dim>128</dim>
					<dim>1</dim>
					<dim>1</dim>
				</port>
			</input>
			<output>
				<port id="2" precision="FP32" names="343_1">
					<dim>1</dim>
					<dim>128</dim>
					<dim>56</dim>
					<dim>96</dim>
				</port>
			</output>
		</layer>
		<layer id="158" name="__module.model.22.m.0.1.ffn.0.act/aten::silu_/Swish_19" type="Swish" version="opset4">
			<input>
				<port id="0" precision="FP32">
					<dim>1</dim>
					<dim>128</dim>
					<dim>56</dim>
					<dim>96</dim>
				</port>
			</input>
			<output>
				<port id="1" precision="FP32" names="343,input.75">
					<dim>1</dim>
					<dim>128</dim>
					<dim>56</dim>
					<dim>96</dim>
				</port>
			</output>
		</layer>
		<layer id="159" name="__module.model.6/aten::cat/Concat" type="Concat" version="opset1">
			<data axis="1" />
			<input>
				<port id="0" precision="FP32">
					<dim>1</dim>
					<dim>128</dim>
					<dim>56</dim>
					<dim>96</dim>
				</port>
				<port id="1" precision="FP32">
					<dim>1</dim>
					<dim>128</dim>
					<dim>56</dim>
					<dim>96</dim>
				</port>
				<port id="2" precision="FP32">
					<dim>1</dim>
					<dim>128</dim>
					<dim>56</dim>
					<dim>96</dim>
				</port>
			</input>
			<output>
				<port id="3" precision="FP32" names="346,input.77">
					<dim>1</dim>
					<dim>384</dim>
					<dim>56</dim>
					<dim>96</dim>
				</port>
			</output>
		</layer>
		<layer id="160" name="self.model.6.cv2.conv.weight_compressed" type="Const" version="opset1">
			<data element_type="f16" shape="256, 384, 1, 1" offset="2377560" size="196608" />
			<output>
				<port id="0" precision="FP16" names="self.model.6.cv2.conv.weight">
					<dim>256</dim>
					<dim>384</dim>
					<dim>1</dim>
					<dim>1</dim>
				</port>
			</output>
		</layer>
		<layer id="161" name="self.model.6.cv2.conv.weight" type="Convert" version="opset1">
			<data destination_type="f32" />
			<rt_info>
				<attribute name="decompression" version="0" />
			</rt_info>
			<input>
				<port id="0" precision="FP16">
					<dim>256</dim>
					<dim>384</dim>
					<dim>1</dim>
					<dim>1</dim>
				</port>
			</input>
			<output>
				<port id="1" precision="FP32">
					<dim>256</dim>
					<dim>384</dim>
					<dim>1</dim>
					<dim>1</dim>
				</port>
			</output>
		</layer>
		<layer id="162" name="__module.model.6.cv2.conv/aten::_convolution/Convolution" type="Convolution" version="opset1">
			<data strides="1, 1" dilations="1, 1" pads_begin="0, 0" pads_end="0, 0" auto_pad="explicit" />
			<input>
				<port id="0" precision="FP32">
					<dim>1</dim>
					<dim>384</dim>
					<dim>56</dim>
					<dim>96</dim>
				</port>
				<port id="1" precision="FP32">
					<dim>256</dim>
					<dim>384</dim>
					<dim>1</dim>
					<dim>1</dim>
				</port>
			</input>
			<output>
				<port id="2" precision="FP32">
					<dim>1</dim>
					<dim>256</dim>
					<dim>56</dim>
					<dim>96</dim>
				</port>
			</output>
		</layer>
		<layer id="163" name="__module.model.6.cv2.conv/aten::_convolution/Reshape_compressed" type="Const" version="opset1">
			<data element_type="f16" shape="1, 256, 1, 1" offset="2574168" size="512" />
			<output>
				<port id="0" precision="FP16">
					<dim>1</dim>
					<dim>256</dim>
					<dim>1</dim>
					<dim>1</dim>
				</port>
			</output>
		</layer>
		<layer id="164" name="__module.model.6.cv2.conv/aten::_convolution/Reshape" type="Convert" version="opset1">
			<data destination_type="f32" />
			<rt_info>
				<attribute name="decompression" version="0" />
			</rt_info>
			<input>
				<port id="0" precision="FP16">
					<dim>1</dim>
					<dim>256</dim>
					<dim>1</dim>
					<dim>1</dim>
				</port>
			</input>
			<output>
				<port id="1" precision="FP32">
					<dim>1</dim>
					<dim>256</dim>
					<dim>1</dim>
					<dim>1</dim>
				</port>
			</output>
		</layer>
		<layer id="165" name="__module.model.6.cv2.conv/aten::_convolution/Add" type="Add" version="opset1">
			<data auto_broadcast="numpy" />
			<input>
				<port id="0" precision="FP32">
					<dim>1</dim>
					<dim>256</dim>
					<dim>56</dim>
					<dim>96</dim>
				</port>
				<port id="1" precision="FP32">
					<dim>1</dim>
					<dim>256</dim>
					<dim>1</dim>
					<dim>1</dim>
				</port>
			</input>
			<output>
				<port id="2" precision="FP32" names="354_1">
					<dim>1</dim>
					<dim>256</dim>
					<dim>56</dim>
					<dim>96</dim>
				</port>
			</output>
		</layer>
		<layer id="166" name="__module.model.22.m.0.1.ffn.0.act/aten::silu_/Swish_20" type="Swish" version="opset4">
			<input>
				<port id="0" precision="FP32">
					<dim>1</dim>
					<dim>256</dim>
					<dim>56</dim>
					<dim>96</dim>
				</port>
			</input>
			<output>
				<port id="1" precision="FP32" names="354,input.79">
					<dim>1</dim>
					<dim>256</dim>
					<dim>56</dim>
					<dim>96</dim>
				</port>
			</output>
		</layer>
		<layer id="167" name="self.model.7.conv.weight_compressed" type="Const" version="opset1">
			<data element_type="f16" shape="512, 256, 3, 3" offset="2574680" size="2359296" />
			<output>
				<port id="0" precision="FP16" names="self.model.7.conv.weight">
					<dim>512</dim>
					<dim>256</dim>
					<dim>3</dim>
					<dim>3</dim>
				</port>
			</output>
		</layer>
		<layer id="168" name="self.model.7.conv.weight" type="Convert" version="opset1">
			<data destination_type="f32" />
			<rt_info>
				<attribute name="decompression" version="0" />
			</rt_info>
			<input>
				<port id="0" precision="FP16">
					<dim>512</dim>
					<dim>256</dim>
					<dim>3</dim>
					<dim>3</dim>
				</port>
			</input>
			<output>
				<port id="1" precision="FP32">
					<dim>512</dim>
					<dim>256</dim>
					<dim>3</dim>
					<dim>3</dim>
				</port>
			</output>
		</layer>
		<layer id="169" name="__module.model.7.conv/aten::_convolution/Convolution" type="Convolution" version="opset1">
			<data strides="2, 2" dilations="1, 1" pads_begin="1, 1" pads_end="1, 1" auto_pad="explicit" />
			<input>
				<port id="0" precision="FP32">
					<dim>1</dim>
					<dim>256</dim>
					<dim>56</dim>
					<dim>96</dim>
				</port>
				<port id="1" precision="FP32">
					<dim>512</dim>
					<dim>256</dim>
					<dim>3</dim>
					<dim>3</dim>
				</port>
			</input>
			<output>
				<port id="2" precision="FP32">
					<dim>1</dim>
					<dim>512</dim>
					<dim>28</dim>
					<dim>48</dim>
				</port>
			</output>
		</layer>
		<layer id="170" name="__module.model.7.conv/aten::_convolution/Reshape_compressed" type="Const" version="opset1">
			<data element_type="f16" shape="1, 512, 1, 1" offset="4933976" size="1024" />
			<output>
				<port id="0" precision="FP16">
					<dim>1</dim>
					<dim>512</dim>
					<dim>1</dim>
					<dim>1</dim>
				</port>
			</output>
		</layer>
		<layer id="171" name="__module.model.7.conv/aten::_convolution/Reshape" type="Convert" version="opset1">
			<data destination_type="f32" />
			<rt_info>
				<attribute name="decompression" version="0" />
			</rt_info>
			<input>
				<port id="0" precision="FP16">
					<dim>1</dim>
					<dim>512</dim>
					<dim>1</dim>
					<dim>1</dim>
				</port>
			</input>
			<output>
				<port id="1" precision="FP32">
					<dim>1</dim>
					<dim>512</dim>
					<dim>1</dim>
					<dim>1</dim>
				</port>
			</output>
		</layer>
		<layer id="172" name="__module.model.7.conv/aten::_convolution/Add" type="Add" version="opset1">
			<data auto_broadcast="numpy" />
			<input>
				<port id="0" precision="FP32">
					<dim>1</dim>
					<dim>512</dim>
					<dim>28</dim>
					<dim>48</dim>
				</port>
				<port id="1" precision="FP32">
					<dim>1</dim>
					<dim>512</dim>
					<dim>1</dim>
					<dim>1</dim>
				</port>
			</input>
			<output>
				<port id="2" precision="FP32" names="368_1">
					<dim>1</dim>
					<dim>512</dim>
					<dim>28</dim>
					<dim>48</dim>
				</port>
			</output>
		</layer>
		<layer id="173" name="__module.model.22.m.0.1.ffn.0.act/aten::silu_/Swish_21" type="Swish" version="opset4">
			<input>
				<port id="0" precision="FP32">
					<dim>1</dim>
					<dim>512</dim>
					<dim>28</dim>
					<dim>48</dim>
				</port>
			</input>
			<output>
				<port id="1" precision="FP32" names="368,input.83">
					<dim>1</dim>
					<dim>512</dim>
					<dim>28</dim>
					<dim>48</dim>
				</port>
			</output>
		</layer>
		<layer id="174" name="self.model.8.cv1.conv.weight_compressed" type="Const" version="opset1">
			<data element_type="f16" shape="512, 512, 1, 1" offset="4935000" size="524288" />
			<output>
				<port id="0" precision="FP16" names="self.model.8.cv1.conv.weight">
					<dim>512</dim>
					<dim>512</dim>
					<dim>1</dim>
					<dim>1</dim>
				</port>
			</output>
		</layer>
		<layer id="175" name="self.model.8.cv1.conv.weight" type="Convert" version="opset1">
			<data destination_type="f32" />
			<rt_info>
				<attribute name="decompression" version="0" />
			</rt_info>
			<input>
				<port id="0" precision="FP16">
					<dim>512</dim>
					<dim>512</dim>
					<dim>1</dim>
					<dim>1</dim>
				</port>
			</input>
			<output>
				<port id="1" precision="FP32">
					<dim>512</dim>
					<dim>512</dim>
					<dim>1</dim>
					<dim>1</dim>
				</port>
			</output>
		</layer>
		<layer id="176" name="__module.model.8.cv1.conv/aten::_convolution/Convolution" type="Convolution" version="opset1">
			<data strides="1, 1" dilations="1, 1" pads_begin="0, 0" pads_end="0, 0" auto_pad="explicit" />
			<input>
				<port id="0" precision="FP32">
					<dim>1</dim>
					<dim>512</dim>
					<dim>28</dim>
					<dim>48</dim>
				</port>
				<port id="1" precision="FP32">
					<dim>512</dim>
					<dim>512</dim>
					<dim>1</dim>
					<dim>1</dim>
				</port>
			</input>
			<output>
				<port id="2" precision="FP32">
					<dim>1</dim>
					<dim>512</dim>
					<dim>28</dim>
					<dim>48</dim>
				</port>
			</output>
		</layer>
		<layer id="177" name="__module.model.8.cv1.conv/aten::_convolution/Reshape_compressed" type="Const" version="opset1">
			<data element_type="f16" shape="1, 512, 1, 1" offset="5459288" size="1024" />
			<output>
				<port id="0" precision="FP16">
					<dim>1</dim>
					<dim>512</dim>
					<dim>1</dim>
					<dim>1</dim>
				</port>
			</output>
		</layer>
		<layer id="178" name="__module.model.8.cv1.conv/aten::_convolution/Reshape" type="Convert" version="opset1">
			<data destination_type="f32" />
			<rt_info>
				<attribute name="decompression" version="0" />
			</rt_info>
			<input>
				<port id="0" precision="FP16">
					<dim>1</dim>
					<dim>512</dim>
					<dim>1</dim>
					<dim>1</dim>
				</port>
			</input>
			<output>
				<port id="1" precision="FP32">
					<dim>1</dim>
					<dim>512</dim>
					<dim>1</dim>
					<dim>1</dim>
				</port>
			</output>
		</layer>
		<layer id="179" name="__module.model.8.cv1.conv/aten::_convolution/Add" type="Add" version="opset1">
			<data auto_broadcast="numpy" />
			<input>
				<port id="0" precision="FP32">
					<dim>1</dim>
					<dim>512</dim>
					<dim>28</dim>
					<dim>48</dim>
				</port>
				<port id="1" precision="FP32">
					<dim>1</dim>
					<dim>512</dim>
					<dim>1</dim>
					<dim>1</dim>
				</port>
			</input>
			<output>
				<port id="2" precision="FP32" names="386_1">
					<dim>1</dim>
					<dim>512</dim>
					<dim>28</dim>
					<dim>48</dim>
				</port>
			</output>
		</layer>
		<layer id="180" name="__module.model.22.m.0.1.ffn.0.act/aten::silu_/Swish_22" type="Swish" version="opset4">
			<input>
				<port id="0" precision="FP32">
					<dim>1</dim>
					<dim>512</dim>
					<dim>28</dim>
					<dim>48</dim>
				</port>
			</input>
			<output>
				<port id="1" precision="FP32" names="386,input.87">
					<dim>1</dim>
					<dim>512</dim>
					<dim>28</dim>
					<dim>48</dim>
				</port>
			</output>
		</layer>
		<layer id="181" name="374" type="Const" version="opset1">
			<data element_type="i64" shape="" offset="160000" size="8" />
			<output>
				<port id="0" precision="I64" names="374" />
			</output>
		</layer>
		<layer id="182" name="Constant_1334" type="Const" version="opset1">
			<data element_type="i64" shape="2" offset="5460312" size="16" />
			<output>
				<port id="0" precision="I64">
					<dim>2</dim>
				</port>
			</output>
		</layer>
		<layer id="183" name="__module.model.8/aten::split_with_sizes/VariadicSplit" type="VariadicSplit" version="opset1">
			<input>
				<port id="0" precision="FP32">
					<dim>1</dim>
					<dim>512</dim>
					<dim>28</dim>
					<dim>48</dim>
				</port>
				<port id="1" precision="I64" />
				<port id="2" precision="I64">
					<dim>2</dim>
				</port>
			</input>
			<output>
				<port id="3" precision="FP32" names="390">
					<dim>1</dim>
					<dim>256</dim>
					<dim>28</dim>
					<dim>48</dim>
				</port>
				<port id="4" precision="FP32" names="391,input.89">
					<dim>1</dim>
					<dim>256</dim>
					<dim>28</dim>
					<dim>48</dim>
				</port>
			</output>
		</layer>
		<layer id="184" name="self.model.8.m.0.cv1.conv.weight_compressed" type="Const" version="opset1">
			<data element_type="f16" shape="128, 256, 1, 1" offset="5460328" size="65536" />
			<output>
				<port id="0" precision="FP16" names="self.model.8.m.0.cv1.conv.weight">
					<dim>128</dim>
					<dim>256</dim>
					<dim>1</dim>
					<dim>1</dim>
				</port>
			</output>
		</layer>
		<layer id="185" name="self.model.8.m.0.cv1.conv.weight" type="Convert" version="opset1">
			<data destination_type="f32" />
			<rt_info>
				<attribute name="decompression" version="0" />
			</rt_info>
			<input>
				<port id="0" precision="FP16">
					<dim>128</dim>
					<dim>256</dim>
					<dim>1</dim>
					<dim>1</dim>
				</port>
			</input>
			<output>
				<port id="1" precision="FP32">
					<dim>128</dim>
					<dim>256</dim>
					<dim>1</dim>
					<dim>1</dim>
				</port>
			</output>
		</layer>
		<layer id="186" name="__module.model.8.m.0.cv1.conv/aten::_convolution/Convolution" type="Convolution" version="opset1">
			<data strides="1, 1" dilations="1, 1" pads_begin="0, 0" pads_end="0, 0" auto_pad="explicit" />
			<input>
				<port id="0" precision="FP32">
					<dim>1</dim>
					<dim>256</dim>
					<dim>28</dim>
					<dim>48</dim>
				</port>
				<port id="1" precision="FP32">
					<dim>128</dim>
					<dim>256</dim>
					<dim>1</dim>
					<dim>1</dim>
				</port>
			</input>
			<output>
				<port id="2" precision="FP32">
					<dim>1</dim>
					<dim>128</dim>
					<dim>28</dim>
					<dim>48</dim>
				</port>
			</output>
		</layer>
		<layer id="187" name="__module.model.8.m.0.cv1.conv/aten::_convolution/Reshape_compressed" type="Const" version="opset1">
			<data element_type="f16" shape="1, 128, 1, 1" offset="5525864" size="256" />
			<output>
				<port id="0" precision="FP16">
					<dim>1</dim>
					<dim>128</dim>
					<dim>1</dim>
					<dim>1</dim>
				</port>
			</output>
		</layer>
		<layer id="188" name="__module.model.8.m.0.cv1.conv/aten::_convolution/Reshape" type="Convert" version="opset1">
			<data destination_type="f32" />
			<rt_info>
				<attribute name="decompression" version="0" />
			</rt_info>
			<input>
				<port id="0" precision="FP16">
					<dim>1</dim>
					<dim>128</dim>
					<dim>1</dim>
					<dim>1</dim>
				</port>
			</input>
			<output>
				<port id="1" precision="FP32">
					<dim>1</dim>
					<dim>128</dim>
					<dim>1</dim>
					<dim>1</dim>
				</port>
			</output>
		</layer>
		<layer id="189" name="__module.model.8.m.0.cv1.conv/aten::_convolution/Add" type="Add" version="opset1">
			<data auto_broadcast="numpy" />
			<input>
				<port id="0" precision="FP32">
					<dim>1</dim>
					<dim>128</dim>
					<dim>28</dim>
					<dim>48</dim>
				</port>
				<port id="1" precision="FP32">
					<dim>1</dim>
					<dim>128</dim>
					<dim>1</dim>
					<dim>1</dim>
				</port>
			</input>
			<output>
				<port id="2" precision="FP32" names="403_1">
					<dim>1</dim>
					<dim>128</dim>
					<dim>28</dim>
					<dim>48</dim>
				</port>
			</output>
		</layer>
		<layer id="190" name="__module.model.22.m.0.1.ffn.0.act/aten::silu_/Swish_23" type="Swish" version="opset4">
			<input>
				<port id="0" precision="FP32">
					<dim>1</dim>
					<dim>128</dim>
					<dim>28</dim>
					<dim>48</dim>
				</port>
			</input>
			<output>
				<port id="1" precision="FP32" names="403,input.91">
					<dim>1</dim>
					<dim>128</dim>
					<dim>28</dim>
					<dim>48</dim>
				</port>
			</output>
		</layer>
		<layer id="191" name="self.model.8.m.0.m.0.cv1.conv.weight_compressed" type="Const" version="opset1">
			<data element_type="f16" shape="128, 128, 3, 3" offset="5526120" size="294912" />
			<output>
				<port id="0" precision="FP16" names="self.model.8.m.0.m.0.cv1.conv.weight">
					<dim>128</dim>
					<dim>128</dim>
					<dim>3</dim>
					<dim>3</dim>
				</port>
			</output>
		</layer>
		<layer id="192" name="self.model.8.m.0.m.0.cv1.conv.weight" type="Convert" version="opset1">
			<data destination_type="f32" />
			<rt_info>
				<attribute name="decompression" version="0" />
			</rt_info>
			<input>
				<port id="0" precision="FP16">
					<dim>128</dim>
					<dim>128</dim>
					<dim>3</dim>
					<dim>3</dim>
				</port>
			</input>
			<output>
				<port id="1" precision="FP32">
					<dim>128</dim>
					<dim>128</dim>
					<dim>3</dim>
					<dim>3</dim>
				</port>
			</output>
		</layer>
		<layer id="193" name="__module.model.8.m.0.m.0.cv1.conv/aten::_convolution/Convolution" type="Convolution" version="opset1">
			<data strides="1, 1" dilations="1, 1" pads_begin="1, 1" pads_end="1, 1" auto_pad="explicit" />
			<input>
				<port id="0" precision="FP32">
					<dim>1</dim>
					<dim>128</dim>
					<dim>28</dim>
					<dim>48</dim>
				</port>
				<port id="1" precision="FP32">
					<dim>128</dim>
					<dim>128</dim>
					<dim>3</dim>
					<dim>3</dim>
				</port>
			</input>
			<output>
				<port id="2" precision="FP32">
					<dim>1</dim>
					<dim>128</dim>
					<dim>28</dim>
					<dim>48</dim>
				</port>
			</output>
		</layer>
		<layer id="194" name="__module.model.8.m.0.m.0.cv1.conv/aten::_convolution/Reshape_compressed" type="Const" version="opset1">
			<data element_type="f16" shape="1, 128, 1, 1" offset="5821032" size="256" />
			<output>
				<port id="0" precision="FP16">
					<dim>1</dim>
					<dim>128</dim>
					<dim>1</dim>
					<dim>1</dim>
				</port>
			</output>
		</layer>
		<layer id="195" name="__module.model.8.m.0.m.0.cv1.conv/aten::_convolution/Reshape" type="Convert" version="opset1">
			<data destination_type="f32" />
			<rt_info>
				<attribute name="decompression" version="0" />
			</rt_info>
			<input>
				<port id="0" precision="FP16">
					<dim>1</dim>
					<dim>128</dim>
					<dim>1</dim>
					<dim>1</dim>
				</port>
			</input>
			<output>
				<port id="1" precision="FP32">
					<dim>1</dim>
					<dim>128</dim>
					<dim>1</dim>
					<dim>1</dim>
				</port>
			</output>
		</layer>
		<layer id="196" name="__module.model.8.m.0.m.0.cv1.conv/aten::_convolution/Add" type="Add" version="opset1">
			<data auto_broadcast="numpy" />
			<input>
				<port id="0" precision="FP32">
					<dim>1</dim>
					<dim>128</dim>
					<dim>28</dim>
					<dim>48</dim>
				</port>
				<port id="1" precision="FP32">
					<dim>1</dim>
					<dim>128</dim>
					<dim>1</dim>
					<dim>1</dim>
				</port>
			</input>
			<output>
				<port id="2" precision="FP32" names="416_1">
					<dim>1</dim>
					<dim>128</dim>
					<dim>28</dim>
					<dim>48</dim>
				</port>
			</output>
		</layer>
		<layer id="197" name="__module.model.22.m.0.1.ffn.0.act/aten::silu_/Swish_24" type="Swish" version="opset4">
			<input>
				<port id="0" precision="FP32">
					<dim>1</dim>
					<dim>128</dim>
					<dim>28</dim>
					<dim>48</dim>
				</port>
			</input>
			<output>
				<port id="1" precision="FP32" names="416,input.95">
					<dim>1</dim>
					<dim>128</dim>
					<dim>28</dim>
					<dim>48</dim>
				</port>
			</output>
		</layer>
		<layer id="198" name="self.model.8.m.0.m.0.cv2.conv.weight_compressed" type="Const" version="opset1">
			<data element_type="f16" shape="128, 128, 3, 3" offset="5821288" size="294912" />
			<output>
				<port id="0" precision="FP16" names="self.model.8.m.0.m.0.cv2.conv.weight">
					<dim>128</dim>
					<dim>128</dim>
					<dim>3</dim>
					<dim>3</dim>
				</port>
			</output>
		</layer>
		<layer id="199" name="self.model.8.m.0.m.0.cv2.conv.weight" type="Convert" version="opset1">
			<data destination_type="f32" />
			<rt_info>
				<attribute name="decompression" version="0" />
			</rt_info>
			<input>
				<port id="0" precision="FP16">
					<dim>128</dim>
					<dim>128</dim>
					<dim>3</dim>
					<dim>3</dim>
				</port>
			</input>
			<output>
				<port id="1" precision="FP32">
					<dim>128</dim>
					<dim>128</dim>
					<dim>3</dim>
					<dim>3</dim>
				</port>
			</output>
		</layer>
		<layer id="200" name="__module.model.8.m.0.m.0.cv2.conv/aten::_convolution/Convolution" type="Convolution" version="opset1">
			<data strides="1, 1" dilations="1, 1" pads_begin="1, 1" pads_end="1, 1" auto_pad="explicit" />
			<input>
				<port id="0" precision="FP32">
					<dim>1</dim>
					<dim>128</dim>
					<dim>28</dim>
					<dim>48</dim>
				</port>
				<port id="1" precision="FP32">
					<dim>128</dim>
					<dim>128</dim>
					<dim>3</dim>
					<dim>3</dim>
				</port>
			</input>
			<output>
				<port id="2" precision="FP32">
					<dim>1</dim>
					<dim>128</dim>
					<dim>28</dim>
					<dim>48</dim>
				</port>
			</output>
		</layer>
		<layer id="201" name="__module.model.8.m.0.m.0.cv2.conv/aten::_convolution/Reshape_compressed" type="Const" version="opset1">
			<data element_type="f16" shape="1, 128, 1, 1" offset="6116200" size="256" />
			<output>
				<port id="0" precision="FP16">
					<dim>1</dim>
					<dim>128</dim>
					<dim>1</dim>
					<dim>1</dim>
				</port>
			</output>
		</layer>
		<layer id="202" name="__module.model.8.m.0.m.0.cv2.conv/aten::_convolution/Reshape" type="Convert" version="opset1">
			<data destination_type="f32" />
			<rt_info>
				<attribute name="decompression" version="0" />
			</rt_info>
			<input>
				<port id="0" precision="FP16">
					<dim>1</dim>
					<dim>128</dim>
					<dim>1</dim>
					<dim>1</dim>
				</port>
			</input>
			<output>
				<port id="1" precision="FP32">
					<dim>1</dim>
					<dim>128</dim>
					<dim>1</dim>
					<dim>1</dim>
				</port>
			</output>
		</layer>
		<layer id="203" name="__module.model.8.m.0.m.0.cv2.conv/aten::_convolution/Add" type="Add" version="opset1">
			<data auto_broadcast="numpy" />
			<input>
				<port id="0" precision="FP32">
					<dim>1</dim>
					<dim>128</dim>
					<dim>28</dim>
					<dim>48</dim>
				</port>
				<port id="1" precision="FP32">
					<dim>1</dim>
					<dim>128</dim>
					<dim>1</dim>
					<dim>1</dim>
				</port>
			</input>
			<output>
				<port id="2" precision="FP32" names="425_1">
					<dim>1</dim>
					<dim>128</dim>
					<dim>28</dim>
					<dim>48</dim>
				</port>
			</output>
		</layer>
		<layer id="204" name="__module.model.22.m.0.1.ffn.0.act/aten::silu_/Swish_25" type="Swish" version="opset4">
			<input>
				<port id="0" precision="FP32">
					<dim>1</dim>
					<dim>128</dim>
					<dim>28</dim>
					<dim>48</dim>
				</port>
			</input>
			<output>
				<port id="1" precision="FP32" names="425,input.99">
					<dim>1</dim>
					<dim>128</dim>
					<dim>28</dim>
					<dim>48</dim>
				</port>
			</output>
		</layer>
		<layer id="205" name="__module.model.8.m.0.m.0/aten::add/Add" type="Add" version="opset1">
			<data auto_broadcast="numpy" />
			<input>
				<port id="0" precision="FP32">
					<dim>1</dim>
					<dim>128</dim>
					<dim>28</dim>
					<dim>48</dim>
				</port>
				<port id="1" precision="FP32">
					<dim>1</dim>
					<dim>128</dim>
					<dim>28</dim>
					<dim>48</dim>
				</port>
			</input>
			<output>
				<port id="2" precision="FP32" names="427,input.101">
					<dim>1</dim>
					<dim>128</dim>
					<dim>28</dim>
					<dim>48</dim>
				</port>
			</output>
		</layer>
		<layer id="206" name="self.model.8.m.0.m.1.cv1.conv.weight_compressed" type="Const" version="opset1">
			<data element_type="f16" shape="128, 128, 3, 3" offset="6116456" size="294912" />
			<output>
				<port id="0" precision="FP16" names="self.model.8.m.0.m.1.cv1.conv.weight">
					<dim>128</dim>
					<dim>128</dim>
					<dim>3</dim>
					<dim>3</dim>
				</port>
			</output>
		</layer>
		<layer id="207" name="self.model.8.m.0.m.1.cv1.conv.weight" type="Convert" version="opset1">
			<data destination_type="f32" />
			<rt_info>
				<attribute name="decompression" version="0" />
			</rt_info>
			<input>
				<port id="0" precision="FP16">
					<dim>128</dim>
					<dim>128</dim>
					<dim>3</dim>
					<dim>3</dim>
				</port>
			</input>
			<output>
				<port id="1" precision="FP32">
					<dim>128</dim>
					<dim>128</dim>
					<dim>3</dim>
					<dim>3</dim>
				</port>
			</output>
		</layer>
		<layer id="208" name="__module.model.8.m.0.m.1.cv1.conv/aten::_convolution/Convolution" type="Convolution" version="opset1">
			<data strides="1, 1" dilations="1, 1" pads_begin="1, 1" pads_end="1, 1" auto_pad="explicit" />
			<input>
				<port id="0" precision="FP32">
					<dim>1</dim>
					<dim>128</dim>
					<dim>28</dim>
					<dim>48</dim>
				</port>
				<port id="1" precision="FP32">
					<dim>128</dim>
					<dim>128</dim>
					<dim>3</dim>
					<dim>3</dim>
				</port>
			</input>
			<output>
				<port id="2" precision="FP32">
					<dim>1</dim>
					<dim>128</dim>
					<dim>28</dim>
					<dim>48</dim>
				</port>
			</output>
		</layer>
		<layer id="209" name="__module.model.8.m.0.m.1.cv1.conv/aten::_convolution/Reshape_compressed" type="Const" version="opset1">
			<data element_type="f16" shape="1, 128, 1, 1" offset="6411368" size="256" />
			<output>
				<port id="0" precision="FP16">
					<dim>1</dim>
					<dim>128</dim>
					<dim>1</dim>
					<dim>1</dim>
				</port>
			</output>
		</layer>
		<layer id="210" name="__module.model.8.m.0.m.1.cv1.conv/aten::_convolution/Reshape" type="Convert" version="opset1">
			<data destination_type="f32" />
			<rt_info>
				<attribute name="decompression" version="0" />
			</rt_info>
			<input>
				<port id="0" precision="FP16">
					<dim>1</dim>
					<dim>128</dim>
					<dim>1</dim>
					<dim>1</dim>
				</port>
			</input>
			<output>
				<port id="1" precision="FP32">
					<dim>1</dim>
					<dim>128</dim>
					<dim>1</dim>
					<dim>1</dim>
				</port>
			</output>
		</layer>
		<layer id="211" name="__module.model.8.m.0.m.1.cv1.conv/aten::_convolution/Add" type="Add" version="opset1">
			<data auto_broadcast="numpy" />
			<input>
				<port id="0" precision="FP32">
					<dim>1</dim>
					<dim>128</dim>
					<dim>28</dim>
					<dim>48</dim>
				</port>
				<port id="1" precision="FP32">
					<dim>1</dim>
					<dim>128</dim>
					<dim>1</dim>
					<dim>1</dim>
				</port>
			</input>
			<output>
				<port id="2" precision="FP32" names="437_1">
					<dim>1</dim>
					<dim>128</dim>
					<dim>28</dim>
					<dim>48</dim>
				</port>
			</output>
		</layer>
		<layer id="212" name="__module.model.22.m.0.1.ffn.0.act/aten::silu_/Swish_26" type="Swish" version="opset4">
			<input>
				<port id="0" precision="FP32">
					<dim>1</dim>
					<dim>128</dim>
					<dim>28</dim>
					<dim>48</dim>
				</port>
			</input>
			<output>
				<port id="1" precision="FP32" names="437,input.103">
					<dim>1</dim>
					<dim>128</dim>
					<dim>28</dim>
					<dim>48</dim>
				</port>
			</output>
		</layer>
		<layer id="213" name="self.model.8.m.0.m.1.cv2.conv.weight_compressed" type="Const" version="opset1">
			<data element_type="f16" shape="128, 128, 3, 3" offset="6411624" size="294912" />
			<output>
				<port id="0" precision="FP16" names="self.model.8.m.0.m.1.cv2.conv.weight">
					<dim>128</dim>
					<dim>128</dim>
					<dim>3</dim>
					<dim>3</dim>
				</port>
			</output>
		</layer>
		<layer id="214" name="self.model.8.m.0.m.1.cv2.conv.weight" type="Convert" version="opset1">
			<data destination_type="f32" />
			<rt_info>
				<attribute name="decompression" version="0" />
			</rt_info>
			<input>
				<port id="0" precision="FP16">
					<dim>128</dim>
					<dim>128</dim>
					<dim>3</dim>
					<dim>3</dim>
				</port>
			</input>
			<output>
				<port id="1" precision="FP32">
					<dim>128</dim>
					<dim>128</dim>
					<dim>3</dim>
					<dim>3</dim>
				</port>
			</output>
		</layer>
		<layer id="215" name="__module.model.8.m.0.m.1.cv2.conv/aten::_convolution/Convolution" type="Convolution" version="opset1">
			<data strides="1, 1" dilations="1, 1" pads_begin="1, 1" pads_end="1, 1" auto_pad="explicit" />
			<input>
				<port id="0" precision="FP32">
					<dim>1</dim>
					<dim>128</dim>
					<dim>28</dim>
					<dim>48</dim>
				</port>
				<port id="1" precision="FP32">
					<dim>128</dim>
					<dim>128</dim>
					<dim>3</dim>
					<dim>3</dim>
				</port>
			</input>
			<output>
				<port id="2" precision="FP32">
					<dim>1</dim>
					<dim>128</dim>
					<dim>28</dim>
					<dim>48</dim>
				</port>
			</output>
		</layer>
		<layer id="216" name="__module.model.8.m.0.m.1.cv2.conv/aten::_convolution/Reshape_compressed" type="Const" version="opset1">
			<data element_type="f16" shape="1, 128, 1, 1" offset="6706536" size="256" />
			<output>
				<port id="0" precision="FP16">
					<dim>1</dim>
					<dim>128</dim>
					<dim>1</dim>
					<dim>1</dim>
				</port>
			</output>
		</layer>
		<layer id="217" name="__module.model.8.m.0.m.1.cv2.conv/aten::_convolution/Reshape" type="Convert" version="opset1">
			<data destination_type="f32" />
			<rt_info>
				<attribute name="decompression" version="0" />
			</rt_info>
			<input>
				<port id="0" precision="FP16">
					<dim>1</dim>
					<dim>128</dim>
					<dim>1</dim>
					<dim>1</dim>
				</port>
			</input>
			<output>
				<port id="1" precision="FP32">
					<dim>1</dim>
					<dim>128</dim>
					<dim>1</dim>
					<dim>1</dim>
				</port>
			</output>
		</layer>
		<layer id="218" name="__module.model.8.m.0.m.1.cv2.conv/aten::_convolution/Add" type="Add" version="opset1">
			<data auto_broadcast="numpy" />
			<input>
				<port id="0" precision="FP32">
					<dim>1</dim>
					<dim>128</dim>
					<dim>28</dim>
					<dim>48</dim>
				</port>
				<port id="1" precision="FP32">
					<dim>1</dim>
					<dim>128</dim>
					<dim>1</dim>
					<dim>1</dim>
				</port>
			</input>
			<output>
				<port id="2" precision="FP32" names="446_1">
					<dim>1</dim>
					<dim>128</dim>
					<dim>28</dim>
					<dim>48</dim>
				</port>
			</output>
		</layer>
		<layer id="219" name="__module.model.22.m.0.1.ffn.0.act/aten::silu_/Swish_27" type="Swish" version="opset4">
			<input>
				<port id="0" precision="FP32">
					<dim>1</dim>
					<dim>128</dim>
					<dim>28</dim>
					<dim>48</dim>
				</port>
			</input>
			<output>
				<port id="1" precision="FP32" names="446,input.107">
					<dim>1</dim>
					<dim>128</dim>
					<dim>28</dim>
					<dim>48</dim>
				</port>
			</output>
		</layer>
		<layer id="220" name="__module.model.8.m.0.m.1/aten::add/Add" type="Add" version="opset1">
			<data auto_broadcast="numpy" />
			<input>
				<port id="0" precision="FP32">
					<dim>1</dim>
					<dim>128</dim>
					<dim>28</dim>
					<dim>48</dim>
				</port>
				<port id="1" precision="FP32">
					<dim>1</dim>
					<dim>128</dim>
					<dim>28</dim>
					<dim>48</dim>
				</port>
			</input>
			<output>
				<port id="2" precision="FP32" names="448">
					<dim>1</dim>
					<dim>128</dim>
					<dim>28</dim>
					<dim>48</dim>
				</port>
			</output>
		</layer>
		<layer id="221" name="self.model.8.m.0.cv2.conv.weight_compressed" type="Const" version="opset1">
			<data element_type="f16" shape="128, 256, 1, 1" offset="6706792" size="65536" />
			<output>
				<port id="0" precision="FP16" names="self.model.8.m.0.cv2.conv.weight">
					<dim>128</dim>
					<dim>256</dim>
					<dim>1</dim>
					<dim>1</dim>
				</port>
			</output>
		</layer>
		<layer id="222" name="self.model.8.m.0.cv2.conv.weight" type="Convert" version="opset1">
			<data destination_type="f32" />
			<rt_info>
				<attribute name="decompression" version="0" />
			</rt_info>
			<input>
				<port id="0" precision="FP16">
					<dim>128</dim>
					<dim>256</dim>
					<dim>1</dim>
					<dim>1</dim>
				</port>
			</input>
			<output>
				<port id="1" precision="FP32">
					<dim>128</dim>
					<dim>256</dim>
					<dim>1</dim>
					<dim>1</dim>
				</port>
			</output>
		</layer>
		<layer id="223" name="__module.model.8.m.0.cv2.conv/aten::_convolution/Convolution" type="Convolution" version="opset1">
			<data strides="1, 1" dilations="1, 1" pads_begin="0, 0" pads_end="0, 0" auto_pad="explicit" />
			<input>
				<port id="0" precision="FP32">
					<dim>1</dim>
					<dim>256</dim>
					<dim>28</dim>
					<dim>48</dim>
				</port>
				<port id="1" precision="FP32">
					<dim>128</dim>
					<dim>256</dim>
					<dim>1</dim>
					<dim>1</dim>
				</port>
			</input>
			<output>
				<port id="2" precision="FP32">
					<dim>1</dim>
					<dim>128</dim>
					<dim>28</dim>
					<dim>48</dim>
				</port>
			</output>
		</layer>
		<layer id="224" name="__module.model.8.m.0.cv2.conv/aten::_convolution/Reshape_compressed" type="Const" version="opset1">
			<data element_type="f16" shape="1, 128, 1, 1" offset="6772328" size="256" />
			<output>
				<port id="0" precision="FP16">
					<dim>1</dim>
					<dim>128</dim>
					<dim>1</dim>
					<dim>1</dim>
				</port>
			</output>
		</layer>
		<layer id="225" name="__module.model.8.m.0.cv2.conv/aten::_convolution/Reshape" type="Convert" version="opset1">
			<data destination_type="f32" />
			<rt_info>
				<attribute name="decompression" version="0" />
			</rt_info>
			<input>
				<port id="0" precision="FP16">
					<dim>1</dim>
					<dim>128</dim>
					<dim>1</dim>
					<dim>1</dim>
				</port>
			</input>
			<output>
				<port id="1" precision="FP32">
					<dim>1</dim>
					<dim>128</dim>
					<dim>1</dim>
					<dim>1</dim>
				</port>
			</output>
		</layer>
		<layer id="226" name="__module.model.8.m.0.cv2.conv/aten::_convolution/Add" type="Add" version="opset1">
			<data auto_broadcast="numpy" />
			<input>
				<port id="0" precision="FP32">
					<dim>1</dim>
					<dim>128</dim>
					<dim>28</dim>
					<dim>48</dim>
				</port>
				<port id="1" precision="FP32">
					<dim>1</dim>
					<dim>128</dim>
					<dim>1</dim>
					<dim>1</dim>
				</port>
			</input>
			<output>
				<port id="2" precision="FP32" names="456_1">
					<dim>1</dim>
					<dim>128</dim>
					<dim>28</dim>
					<dim>48</dim>
				</port>
			</output>
		</layer>
		<layer id="227" name="__module.model.22.m.0.1.ffn.0.act/aten::silu_/Swish_28" type="Swish" version="opset4">
			<input>
				<port id="0" precision="FP32">
					<dim>1</dim>
					<dim>128</dim>
					<dim>28</dim>
					<dim>48</dim>
				</port>
			</input>
			<output>
				<port id="1" precision="FP32" names="456,input.109">
					<dim>1</dim>
					<dim>128</dim>
					<dim>28</dim>
					<dim>48</dim>
				</port>
			</output>
		</layer>
		<layer id="228" name="__module.model.8.m.0/aten::cat/Concat" type="Concat" version="opset1">
			<data axis="1" />
			<input>
				<port id="0" precision="FP32">
					<dim>1</dim>
					<dim>128</dim>
					<dim>28</dim>
					<dim>48</dim>
				</port>
				<port id="1" precision="FP32">
					<dim>1</dim>
					<dim>128</dim>
					<dim>28</dim>
					<dim>48</dim>
				</port>
			</input>
			<output>
				<port id="2" precision="FP32" names="459,input.111">
					<dim>1</dim>
					<dim>256</dim>
					<dim>28</dim>
					<dim>48</dim>
				</port>
			</output>
		</layer>
		<layer id="229" name="self.model.8.m.0.cv3.conv.weight_compressed" type="Const" version="opset1">
			<data element_type="f16" shape="256, 256, 1, 1" offset="6772584" size="131072" />
			<output>
				<port id="0" precision="FP16" names="self.model.8.m.0.cv3.conv.weight">
					<dim>256</dim>
					<dim>256</dim>
					<dim>1</dim>
					<dim>1</dim>
				</port>
			</output>
		</layer>
		<layer id="230" name="self.model.8.m.0.cv3.conv.weight" type="Convert" version="opset1">
			<data destination_type="f32" />
			<rt_info>
				<attribute name="decompression" version="0" />
			</rt_info>
			<input>
				<port id="0" precision="FP16">
					<dim>256</dim>
					<dim>256</dim>
					<dim>1</dim>
					<dim>1</dim>
				</port>
			</input>
			<output>
				<port id="1" precision="FP32">
					<dim>256</dim>
					<dim>256</dim>
					<dim>1</dim>
					<dim>1</dim>
				</port>
			</output>
		</layer>
		<layer id="231" name="__module.model.8.m.0.cv3.conv/aten::_convolution/Convolution" type="Convolution" version="opset1">
			<data strides="1, 1" dilations="1, 1" pads_begin="0, 0" pads_end="0, 0" auto_pad="explicit" />
			<input>
				<port id="0" precision="FP32">
					<dim>1</dim>
					<dim>256</dim>
					<dim>28</dim>
					<dim>48</dim>
				</port>
				<port id="1" precision="FP32">
					<dim>256</dim>
					<dim>256</dim>
					<dim>1</dim>
					<dim>1</dim>
				</port>
			</input>
			<output>
				<port id="2" precision="FP32">
					<dim>1</dim>
					<dim>256</dim>
					<dim>28</dim>
					<dim>48</dim>
				</port>
			</output>
		</layer>
		<layer id="232" name="__module.model.8.m.0.cv3.conv/aten::_convolution/Reshape_compressed" type="Const" version="opset1">
			<data element_type="f16" shape="1, 256, 1, 1" offset="6903656" size="512" />
			<output>
				<port id="0" precision="FP16">
					<dim>1</dim>
					<dim>256</dim>
					<dim>1</dim>
					<dim>1</dim>
				</port>
			</output>
		</layer>
		<layer id="233" name="__module.model.8.m.0.cv3.conv/aten::_convolution/Reshape" type="Convert" version="opset1">
			<data destination_type="f32" />
			<rt_info>
				<attribute name="decompression" version="0" />
			</rt_info>
			<input>
				<port id="0" precision="FP16">
					<dim>1</dim>
					<dim>256</dim>
					<dim>1</dim>
					<dim>1</dim>
				</port>
			</input>
			<output>
				<port id="1" precision="FP32">
					<dim>1</dim>
					<dim>256</dim>
					<dim>1</dim>
					<dim>1</dim>
				</port>
			</output>
		</layer>
		<layer id="234" name="__module.model.8.m.0.cv3.conv/aten::_convolution/Add" type="Add" version="opset1">
			<data auto_broadcast="numpy" />
			<input>
				<port id="0" precision="FP32">
					<dim>1</dim>
					<dim>256</dim>
					<dim>28</dim>
					<dim>48</dim>
				</port>
				<port id="1" precision="FP32">
					<dim>1</dim>
					<dim>256</dim>
					<dim>1</dim>
					<dim>1</dim>
				</port>
			</input>
			<output>
				<port id="2" precision="FP32" names="467_1">
					<dim>1</dim>
					<dim>256</dim>
					<dim>28</dim>
					<dim>48</dim>
				</port>
			</output>
		</layer>
		<layer id="235" name="__module.model.22.m.0.1.ffn.0.act/aten::silu_/Swish_29" type="Swish" version="opset4">
			<input>
				<port id="0" precision="FP32">
					<dim>1</dim>
					<dim>256</dim>
					<dim>28</dim>
					<dim>48</dim>
				</port>
			</input>
			<output>
				<port id="1" precision="FP32" names="467,input.113">
					<dim>1</dim>
					<dim>256</dim>
					<dim>28</dim>
					<dim>48</dim>
				</port>
			</output>
		</layer>
		<layer id="236" name="__module.model.8/aten::cat/Concat" type="Concat" version="opset1">
			<data axis="1" />
			<input>
				<port id="0" precision="FP32">
					<dim>1</dim>
					<dim>256</dim>
					<dim>28</dim>
					<dim>48</dim>
				</port>
				<port id="1" precision="FP32">
					<dim>1</dim>
					<dim>256</dim>
					<dim>28</dim>
					<dim>48</dim>
				</port>
				<port id="2" precision="FP32">
					<dim>1</dim>
					<dim>256</dim>
					<dim>28</dim>
					<dim>48</dim>
				</port>
			</input>
			<output>
				<port id="3" precision="FP32" names="470,input.115">
					<dim>1</dim>
					<dim>768</dim>
					<dim>28</dim>
					<dim>48</dim>
				</port>
			</output>
		</layer>
		<layer id="237" name="self.model.8.cv2.conv.weight_compressed" type="Const" version="opset1">
			<data element_type="f16" shape="512, 768, 1, 1" offset="6904168" size="786432" />
			<output>
				<port id="0" precision="FP16" names="self.model.8.cv2.conv.weight">
					<dim>512</dim>
					<dim>768</dim>
					<dim>1</dim>
					<dim>1</dim>
				</port>
			</output>
		</layer>
		<layer id="238" name="self.model.8.cv2.conv.weight" type="Convert" version="opset1">
			<data destination_type="f32" />
			<rt_info>
				<attribute name="decompression" version="0" />
			</rt_info>
			<input>
				<port id="0" precision="FP16">
					<dim>512</dim>
					<dim>768</dim>
					<dim>1</dim>
					<dim>1</dim>
				</port>
			</input>
			<output>
				<port id="1" precision="FP32">
					<dim>512</dim>
					<dim>768</dim>
					<dim>1</dim>
					<dim>1</dim>
				</port>
			</output>
		</layer>
		<layer id="239" name="__module.model.8.cv2.conv/aten::_convolution/Convolution" type="Convolution" version="opset1">
			<data strides="1, 1" dilations="1, 1" pads_begin="0, 0" pads_end="0, 0" auto_pad="explicit" />
			<input>
				<port id="0" precision="FP32">
					<dim>1</dim>
					<dim>768</dim>
					<dim>28</dim>
					<dim>48</dim>
				</port>
				<port id="1" precision="FP32">
					<dim>512</dim>
					<dim>768</dim>
					<dim>1</dim>
					<dim>1</dim>
				</port>
			</input>
			<output>
				<port id="2" precision="FP32">
					<dim>1</dim>
					<dim>512</dim>
					<dim>28</dim>
					<dim>48</dim>
				</port>
			</output>
		</layer>
		<layer id="240" name="__module.model.8.cv2.conv/aten::_convolution/Reshape_compressed" type="Const" version="opset1">
			<data element_type="f16" shape="1, 512, 1, 1" offset="7690600" size="1024" />
			<output>
				<port id="0" precision="FP16">
					<dim>1</dim>
					<dim>512</dim>
					<dim>1</dim>
					<dim>1</dim>
				</port>
			</output>
		</layer>
		<layer id="241" name="__module.model.8.cv2.conv/aten::_convolution/Reshape" type="Convert" version="opset1">
			<data destination_type="f32" />
			<rt_info>
				<attribute name="decompression" version="0" />
			</rt_info>
			<input>
				<port id="0" precision="FP16">
					<dim>1</dim>
					<dim>512</dim>
					<dim>1</dim>
					<dim>1</dim>
				</port>
			</input>
			<output>
				<port id="1" precision="FP32">
					<dim>1</dim>
					<dim>512</dim>
					<dim>1</dim>
					<dim>1</dim>
				</port>
			</output>
		</layer>
		<layer id="242" name="__module.model.8.cv2.conv/aten::_convolution/Add" type="Add" version="opset1">
			<data auto_broadcast="numpy" />
			<input>
				<port id="0" precision="FP32">
					<dim>1</dim>
					<dim>512</dim>
					<dim>28</dim>
					<dim>48</dim>
				</port>
				<port id="1" precision="FP32">
					<dim>1</dim>
					<dim>512</dim>
					<dim>1</dim>
					<dim>1</dim>
				</port>
			</input>
			<output>
				<port id="2" precision="FP32" names="478_1">
					<dim>1</dim>
					<dim>512</dim>
					<dim>28</dim>
					<dim>48</dim>
				</port>
			</output>
		</layer>
		<layer id="243" name="__module.model.22.m.0.1.ffn.0.act/aten::silu_/Swish_30" type="Swish" version="opset4">
			<input>
				<port id="0" precision="FP32">
					<dim>1</dim>
					<dim>512</dim>
					<dim>28</dim>
					<dim>48</dim>
				</port>
			</input>
			<output>
				<port id="1" precision="FP32" names="478,input.117">
					<dim>1</dim>
					<dim>512</dim>
					<dim>28</dim>
					<dim>48</dim>
				</port>
			</output>
		</layer>
		<layer id="244" name="self.model.9.cv1.conv.weight_compressed" type="Const" version="opset1">
			<data element_type="f16" shape="256, 512, 1, 1" offset="7691624" size="262144" />
			<output>
				<port id="0" precision="FP16" names="self.model.9.cv1.conv.weight">
					<dim>256</dim>
					<dim>512</dim>
					<dim>1</dim>
					<dim>1</dim>
				</port>
			</output>
		</layer>
		<layer id="245" name="self.model.9.cv1.conv.weight" type="Convert" version="opset1">
			<data destination_type="f32" />
			<rt_info>
				<attribute name="decompression" version="0" />
			</rt_info>
			<input>
				<port id="0" precision="FP16">
					<dim>256</dim>
					<dim>512</dim>
					<dim>1</dim>
					<dim>1</dim>
				</port>
			</input>
			<output>
				<port id="1" precision="FP32">
					<dim>256</dim>
					<dim>512</dim>
					<dim>1</dim>
					<dim>1</dim>
				</port>
			</output>
		</layer>
		<layer id="246" name="__module.model.9.cv1.conv/aten::_convolution/Convolution" type="Convolution" version="opset1">
			<data strides="1, 1" dilations="1, 1" pads_begin="0, 0" pads_end="0, 0" auto_pad="explicit" />
			<input>
				<port id="0" precision="FP32">
					<dim>1</dim>
					<dim>512</dim>
					<dim>28</dim>
					<dim>48</dim>
				</port>
				<port id="1" precision="FP32">
					<dim>256</dim>
					<dim>512</dim>
					<dim>1</dim>
					<dim>1</dim>
				</port>
			</input>
			<output>
				<port id="2" precision="FP32">
					<dim>1</dim>
					<dim>256</dim>
					<dim>28</dim>
					<dim>48</dim>
				</port>
			</output>
		</layer>
		<layer id="247" name="__module.model.9.cv1.conv/aten::_convolution/Reshape_compressed" type="Const" version="opset1">
			<data element_type="f16" shape="1, 256, 1, 1" offset="7953768" size="512" />
			<output>
				<port id="0" precision="FP16">
					<dim>1</dim>
					<dim>256</dim>
					<dim>1</dim>
					<dim>1</dim>
				</port>
			</output>
		</layer>
		<layer id="248" name="__module.model.9.cv1.conv/aten::_convolution/Reshape" type="Convert" version="opset1">
			<data destination_type="f32" />
			<rt_info>
				<attribute name="decompression" version="0" />
			</rt_info>
			<input>
				<port id="0" precision="FP16">
					<dim>1</dim>
					<dim>256</dim>
					<dim>1</dim>
					<dim>1</dim>
				</port>
			</input>
			<output>
				<port id="1" precision="FP32">
					<dim>1</dim>
					<dim>256</dim>
					<dim>1</dim>
					<dim>1</dim>
				</port>
			</output>
		</layer>
		<layer id="249" name="__module.model.9.cv1.conv/aten::_convolution/Add" type="Add" version="opset1">
			<data auto_broadcast="numpy" />
			<input>
				<port id="0" precision="FP32">
					<dim>1</dim>
					<dim>256</dim>
					<dim>28</dim>
					<dim>48</dim>
				</port>
				<port id="1" precision="FP32">
					<dim>1</dim>
					<dim>256</dim>
					<dim>1</dim>
					<dim>1</dim>
				</port>
			</input>
			<output>
				<port id="2" precision="FP32" names="498,input.121">
					<dim>1</dim>
					<dim>256</dim>
					<dim>28</dim>
					<dim>48</dim>
				</port>
			</output>
		</layer>
		<layer id="250" name="__module.model.9.m/aten::max_pool2d/MaxPool" type="MaxPool" version="opset14">
			<data strides="1, 1" dilations="1, 1" pads_begin="2, 2" pads_end="2, 2" kernel="5, 5" rounding_type="floor" auto_pad="explicit" index_element_type="i64" axis="2" />
			<input>
				<port id="0" precision="FP32">
					<dim>1</dim>
					<dim>256</dim>
					<dim>28</dim>
					<dim>48</dim>
				</port>
			</input>
			<output>
				<port id="1" precision="FP32" names="503,input.123">
					<dim>1</dim>
					<dim>256</dim>
					<dim>28</dim>
					<dim>48</dim>
				</port>
				<port id="2" precision="I64">
					<dim>1</dim>
					<dim>256</dim>
					<dim>28</dim>
					<dim>48</dim>
				</port>
			</output>
		</layer>
		<layer id="251" name="__module.model.9.m/aten::max_pool2d/MaxPool_1" type="MaxPool" version="opset14">
			<data strides="1, 1" dilations="1, 1" pads_begin="2, 2" pads_end="2, 2" kernel="5, 5" rounding_type="floor" auto_pad="explicit" index_element_type="i64" axis="2" />
			<input>
				<port id="0" precision="FP32">
					<dim>1</dim>
					<dim>256</dim>
					<dim>28</dim>
					<dim>48</dim>
				</port>
			</input>
			<output>
				<port id="1" precision="FP32" names="508,input.125">
					<dim>1</dim>
					<dim>256</dim>
					<dim>28</dim>
					<dim>48</dim>
				</port>
				<port id="2" precision="I64">
					<dim>1</dim>
					<dim>256</dim>
					<dim>28</dim>
					<dim>48</dim>
				</port>
			</output>
		</layer>
		<layer id="252" name="__module.model.9.m/aten::max_pool2d/MaxPool_2" type="MaxPool" version="opset14">
			<data strides="1, 1" dilations="1, 1" pads_begin="2, 2" pads_end="2, 2" kernel="5, 5" rounding_type="floor" auto_pad="explicit" index_element_type="i64" axis="2" />
			<input>
				<port id="0" precision="FP32">
					<dim>1</dim>
					<dim>256</dim>
					<dim>28</dim>
					<dim>48</dim>
				</port>
			</input>
			<output>
				<port id="1" precision="FP32" names="513">
					<dim>1</dim>
					<dim>256</dim>
					<dim>28</dim>
					<dim>48</dim>
				</port>
				<port id="2" precision="I64">
					<dim>1</dim>
					<dim>256</dim>
					<dim>28</dim>
					<dim>48</dim>
				</port>
			</output>
		</layer>
		<layer id="253" name="__module.model.9/aten::cat/Concat" type="Concat" version="opset1">
			<data axis="1" />
			<input>
				<port id="0" precision="FP32">
					<dim>1</dim>
					<dim>256</dim>
					<dim>28</dim>
					<dim>48</dim>
				</port>
				<port id="1" precision="FP32">
					<dim>1</dim>
					<dim>256</dim>
					<dim>28</dim>
					<dim>48</dim>
				</port>
				<port id="2" precision="FP32">
					<dim>1</dim>
					<dim>256</dim>
					<dim>28</dim>
					<dim>48</dim>
				</port>
				<port id="3" precision="FP32">
					<dim>1</dim>
					<dim>256</dim>
					<dim>28</dim>
					<dim>48</dim>
				</port>
			</input>
			<output>
				<port id="4" precision="FP32" names="515,input.127">
					<dim>1</dim>
					<dim>1024</dim>
					<dim>28</dim>
					<dim>48</dim>
				</port>
			</output>
		</layer>
		<layer id="254" name="self.model.9.cv2.conv.weight_compressed" type="Const" version="opset1">
			<data element_type="f16" shape="512, 1024, 1, 1" offset="7954280" size="1048576" />
			<output>
				<port id="0" precision="FP16" names="self.model.9.cv2.conv.weight">
					<dim>512</dim>
					<dim>1024</dim>
					<dim>1</dim>
					<dim>1</dim>
				</port>
			</output>
		</layer>
		<layer id="255" name="self.model.9.cv2.conv.weight" type="Convert" version="opset1">
			<data destination_type="f32" />
			<rt_info>
				<attribute name="decompression" version="0" />
			</rt_info>
			<input>
				<port id="0" precision="FP16">
					<dim>512</dim>
					<dim>1024</dim>
					<dim>1</dim>
					<dim>1</dim>
				</port>
			</input>
			<output>
				<port id="1" precision="FP32">
					<dim>512</dim>
					<dim>1024</dim>
					<dim>1</dim>
					<dim>1</dim>
				</port>
			</output>
		</layer>
		<layer id="256" name="__module.model.9.cv2.conv/aten::_convolution/Convolution" type="Convolution" version="opset1">
			<data strides="1, 1" dilations="1, 1" pads_begin="0, 0" pads_end="0, 0" auto_pad="explicit" />
			<input>
				<port id="0" precision="FP32">
					<dim>1</dim>
					<dim>1024</dim>
					<dim>28</dim>
					<dim>48</dim>
				</port>
				<port id="1" precision="FP32">
					<dim>512</dim>
					<dim>1024</dim>
					<dim>1</dim>
					<dim>1</dim>
				</port>
			</input>
			<output>
				<port id="2" precision="FP32">
					<dim>1</dim>
					<dim>512</dim>
					<dim>28</dim>
					<dim>48</dim>
				</port>
			</output>
		</layer>
		<layer id="257" name="__module.model.9.cv2.conv/aten::_convolution/Reshape_compressed" type="Const" version="opset1">
			<data element_type="f16" shape="1, 512, 1, 1" offset="9002856" size="1024" />
			<output>
				<port id="0" precision="FP16">
					<dim>1</dim>
					<dim>512</dim>
					<dim>1</dim>
					<dim>1</dim>
				</port>
			</output>
		</layer>
		<layer id="258" name="__module.model.9.cv2.conv/aten::_convolution/Reshape" type="Convert" version="opset1">
			<data destination_type="f32" />
			<rt_info>
				<attribute name="decompression" version="0" />
			</rt_info>
			<input>
				<port id="0" precision="FP16">
					<dim>1</dim>
					<dim>512</dim>
					<dim>1</dim>
					<dim>1</dim>
				</port>
			</input>
			<output>
				<port id="1" precision="FP32">
					<dim>1</dim>
					<dim>512</dim>
					<dim>1</dim>
					<dim>1</dim>
				</port>
			</output>
		</layer>
		<layer id="259" name="__module.model.9.cv2.conv/aten::_convolution/Add" type="Add" version="opset1">
			<data auto_broadcast="numpy" />
			<input>
				<port id="0" precision="FP32">
					<dim>1</dim>
					<dim>512</dim>
					<dim>28</dim>
					<dim>48</dim>
				</port>
				<port id="1" precision="FP32">
					<dim>1</dim>
					<dim>512</dim>
					<dim>1</dim>
					<dim>1</dim>
				</port>
			</input>
			<output>
				<port id="2" precision="FP32" names="523_1">
					<dim>1</dim>
					<dim>512</dim>
					<dim>28</dim>
					<dim>48</dim>
				</port>
			</output>
		</layer>
		<layer id="260" name="__module.model.22.m.0.1.ffn.0.act/aten::silu_/Swish_31" type="Swish" version="opset4">
			<input>
				<port id="0" precision="FP32">
					<dim>1</dim>
					<dim>512</dim>
					<dim>28</dim>
					<dim>48</dim>
				</port>
			</input>
			<output>
				<port id="1" precision="FP32" names="523,input.129">
					<dim>1</dim>
					<dim>512</dim>
					<dim>28</dim>
					<dim>48</dim>
				</port>
			</output>
		</layer>
		<layer id="261" name="__module.model.9/aten::add/Add" type="Add" version="opset1">
			<data auto_broadcast="numpy" />
			<input>
				<port id="0" precision="FP32">
					<dim>1</dim>
					<dim>512</dim>
					<dim>28</dim>
					<dim>48</dim>
				</port>
				<port id="1" precision="FP32">
					<dim>1</dim>
					<dim>512</dim>
					<dim>28</dim>
					<dim>48</dim>
				</port>
			</input>
			<output>
				<port id="2" precision="FP32" names="525,input.131">
					<dim>1</dim>
					<dim>512</dim>
					<dim>28</dim>
					<dim>48</dim>
				</port>
			</output>
		</layer>
		<layer id="262" name="self.model.10.cv1.conv.weight_compressed" type="Const" version="opset1">
			<data element_type="f16" shape="512, 512, 1, 1" offset="9003880" size="524288" />
			<output>
				<port id="0" precision="FP16" names="self.model.10.cv1.conv.weight">
					<dim>512</dim>
					<dim>512</dim>
					<dim>1</dim>
					<dim>1</dim>
				</port>
			</output>
		</layer>
		<layer id="263" name="self.model.10.cv1.conv.weight" type="Convert" version="opset1">
			<data destination_type="f32" />
			<rt_info>
				<attribute name="decompression" version="0" />
			</rt_info>
			<input>
				<port id="0" precision="FP16">
					<dim>512</dim>
					<dim>512</dim>
					<dim>1</dim>
					<dim>1</dim>
				</port>
			</input>
			<output>
				<port id="1" precision="FP32">
					<dim>512</dim>
					<dim>512</dim>
					<dim>1</dim>
					<dim>1</dim>
				</port>
			</output>
		</layer>
		<layer id="264" name="__module.model.10.cv1.conv/aten::_convolution/Convolution" type="Convolution" version="opset1">
			<data strides="1, 1" dilations="1, 1" pads_begin="0, 0" pads_end="0, 0" auto_pad="explicit" />
			<input>
				<port id="0" precision="FP32">
					<dim>1</dim>
					<dim>512</dim>
					<dim>28</dim>
					<dim>48</dim>
				</port>
				<port id="1" precision="FP32">
					<dim>512</dim>
					<dim>512</dim>
					<dim>1</dim>
					<dim>1</dim>
				</port>
			</input>
			<output>
				<port id="2" precision="FP32">
					<dim>1</dim>
					<dim>512</dim>
					<dim>28</dim>
					<dim>48</dim>
				</port>
			</output>
		</layer>
		<layer id="265" name="__module.model.10.cv1.conv/aten::_convolution/Reshape_compressed" type="Const" version="opset1">
			<data element_type="f16" shape="1, 512, 1, 1" offset="9528168" size="1024" />
			<output>
				<port id="0" precision="FP16">
					<dim>1</dim>
					<dim>512</dim>
					<dim>1</dim>
					<dim>1</dim>
				</port>
			</output>
		</layer>
		<layer id="266" name="__module.model.10.cv1.conv/aten::_convolution/Reshape" type="Convert" version="opset1">
			<data destination_type="f32" />
			<rt_info>
				<attribute name="decompression" version="0" />
			</rt_info>
			<input>
				<port id="0" precision="FP16">
					<dim>1</dim>
					<dim>512</dim>
					<dim>1</dim>
					<dim>1</dim>
				</port>
			</input>
			<output>
				<port id="1" precision="FP32">
					<dim>1</dim>
					<dim>512</dim>
					<dim>1</dim>
					<dim>1</dim>
				</port>
			</output>
		</layer>
		<layer id="267" name="__module.model.10.cv1.conv/aten::_convolution/Add" type="Add" version="opset1">
			<data auto_broadcast="numpy" />
			<input>
				<port id="0" precision="FP32">
					<dim>1</dim>
					<dim>512</dim>
					<dim>28</dim>
					<dim>48</dim>
				</port>
				<port id="1" precision="FP32">
					<dim>1</dim>
					<dim>512</dim>
					<dim>1</dim>
					<dim>1</dim>
				</port>
			</input>
			<output>
				<port id="2" precision="FP32" names="551_1">
					<dim>1</dim>
					<dim>512</dim>
					<dim>28</dim>
					<dim>48</dim>
				</port>
			</output>
		</layer>
		<layer id="268" name="__module.model.22.m.0.1.ffn.0.act/aten::silu_/Swish_32" type="Swish" version="opset4">
			<input>
				<port id="0" precision="FP32">
					<dim>1</dim>
					<dim>512</dim>
					<dim>28</dim>
					<dim>48</dim>
				</port>
			</input>
			<output>
				<port id="1" precision="FP32" names="551,input.133">
					<dim>1</dim>
					<dim>512</dim>
					<dim>28</dim>
					<dim>48</dim>
				</port>
			</output>
		</layer>
		<layer id="269" name="540" type="Const" version="opset1">
			<data element_type="i64" shape="" offset="160000" size="8" />
			<output>
				<port id="0" precision="I64" names="540" />
			</output>
		</layer>
		<layer id="270" name="Constant_2032" type="Const" version="opset1">
			<data element_type="i64" shape="2" offset="5460312" size="16" />
			<output>
				<port id="0" precision="I64">
					<dim>2</dim>
				</port>
			</output>
		</layer>
		<layer id="271" name="__module.model.10/aten::split_with_sizes/VariadicSplit" type="VariadicSplit" version="opset1">
			<input>
				<port id="0" precision="FP32">
					<dim>1</dim>
					<dim>512</dim>
					<dim>28</dim>
					<dim>48</dim>
				</port>
				<port id="1" precision="I64" />
				<port id="2" precision="I64">
					<dim>2</dim>
				</port>
			</input>
			<output>
				<port id="3" precision="FP32" names="555,a">
					<dim>1</dim>
					<dim>256</dim>
					<dim>28</dim>
					<dim>48</dim>
				</port>
				<port id="4" precision="FP32" names="556,x.3">
					<dim>1</dim>
					<dim>256</dim>
					<dim>28</dim>
					<dim>48</dim>
				</port>
			</output>
		</layer>
		<layer id="272" name="self.model.10.m.0.attn.qkv.conv.weight_compressed" type="Const" version="opset1">
			<data element_type="f16" shape="512, 256, 1, 1" offset="9529192" size="262144" />
			<output>
				<port id="0" precision="FP16" names="self.model.10.m.0.attn.qkv.conv.weight">
					<dim>512</dim>
					<dim>256</dim>
					<dim>1</dim>
					<dim>1</dim>
				</port>
			</output>
		</layer>
		<layer id="273" name="self.model.10.m.0.attn.qkv.conv.weight" type="Convert" version="opset1">
			<data destination_type="f32" />
			<rt_info>
				<attribute name="decompression" version="0" />
			</rt_info>
			<input>
				<port id="0" precision="FP16">
					<dim>512</dim>
					<dim>256</dim>
					<dim>1</dim>
					<dim>1</dim>
				</port>
			</input>
			<output>
				<port id="1" precision="FP32">
					<dim>512</dim>
					<dim>256</dim>
					<dim>1</dim>
					<dim>1</dim>
				</port>
			</output>
		</layer>
		<layer id="274" name="__module.model.10.m.0.attn.qkv.conv/aten::_convolution/Convolution" type="Convolution" version="opset1">
			<data strides="1, 1" dilations="1, 1" pads_begin="0, 0" pads_end="0, 0" auto_pad="explicit" />
			<input>
				<port id="0" precision="FP32">
					<dim>1</dim>
					<dim>256</dim>
					<dim>28</dim>
					<dim>48</dim>
				</port>
				<port id="1" precision="FP32">
					<dim>512</dim>
					<dim>256</dim>
					<dim>1</dim>
					<dim>1</dim>
				</port>
			</input>
			<output>
				<port id="2" precision="FP32">
					<dim>1</dim>
					<dim>512</dim>
					<dim>28</dim>
					<dim>48</dim>
				</port>
			</output>
		</layer>
		<layer id="275" name="__module.model.10.m.0.attn.qkv.conv/aten::_convolution/Reshape_compressed" type="Const" version="opset1">
			<data element_type="f16" shape="1, 512, 1, 1" offset="9791336" size="1024" />
			<output>
				<port id="0" precision="FP16">
					<dim>1</dim>
					<dim>512</dim>
					<dim>1</dim>
					<dim>1</dim>
				</port>
			</output>
		</layer>
		<layer id="276" name="__module.model.10.m.0.attn.qkv.conv/aten::_convolution/Reshape" type="Convert" version="opset1">
			<data destination_type="f32" />
			<rt_info>
				<attribute name="decompression" version="0" />
			</rt_info>
			<input>
				<port id="0" precision="FP16">
					<dim>1</dim>
					<dim>512</dim>
					<dim>1</dim>
					<dim>1</dim>
				</port>
			</input>
			<output>
				<port id="1" precision="FP32">
					<dim>1</dim>
					<dim>512</dim>
					<dim>1</dim>
					<dim>1</dim>
				</port>
			</output>
		</layer>
		<layer id="277" name="__module.model.10.m.0.attn.qkv.conv/aten::_convolution/Add" type="Add" version="opset1">
			<data auto_broadcast="numpy" />
			<input>
				<port id="0" precision="FP32">
					<dim>1</dim>
					<dim>512</dim>
					<dim>28</dim>
					<dim>48</dim>
				</port>
				<port id="1" precision="FP32">
					<dim>1</dim>
					<dim>512</dim>
					<dim>1</dim>
					<dim>1</dim>
				</port>
			</input>
			<output>
				<port id="2" precision="FP32" names="578,qkv.1">
					<dim>1</dim>
					<dim>512</dim>
					<dim>28</dim>
					<dim>48</dim>
				</port>
			</output>
		</layer>
		<layer id="278" name="Constant_2121" type="Const" version="opset1">
			<data element_type="i64" shape="4" offset="9792360" size="32" />
			<rt_info>
				<attribute name="precise" version="0" />
			</rt_info>
			<output>
				<port id="0" precision="I64">
					<dim>4</dim>
				</port>
			</output>
		</layer>
		<layer id="279" name="__module.model.10.m.0.attn/aten::view/Reshape" type="Reshape" version="opset1">
			<data special_zero="false" />
			<input>
				<port id="0" precision="FP32">
					<dim>1</dim>
					<dim>512</dim>
					<dim>28</dim>
					<dim>48</dim>
				</port>
				<port id="1" precision="I64">
					<dim>4</dim>
				</port>
			</input>
			<output>
				<port id="2" precision="FP32" names="580">
					<dim>1</dim>
					<dim>4</dim>
					<dim>128</dim>
					<dim>1344</dim>
				</port>
			</output>
		</layer>
		<layer id="280" name="526" type="Const" version="opset1">
			<data element_type="i64" shape="" offset="9792392" size="8" />
			<output>
				<port id="0" precision="I64" names="526" />
			</output>
		</layer>
		<layer id="281" name="Constant_2132" type="Const" version="opset1">
			<data element_type="i64" shape="3" offset="9792400" size="24" />
			<output>
				<port id="0" precision="I64">
					<dim>3</dim>
				</port>
			</output>
		</layer>
		<layer id="282" name="__module.model.10.m.0.attn/aten::split_with_sizes/VariadicSplit" type="VariadicSplit" version="opset1">
			<input>
				<port id="0" precision="FP32">
					<dim>1</dim>
					<dim>4</dim>
					<dim>128</dim>
					<dim>1344</dim>
				</port>
				<port id="1" precision="I64" />
				<port id="2" precision="I64">
					<dim>3</dim>
				</port>
			</input>
			<output>
				<port id="3" precision="FP32" names="583,q.1">
					<dim>1</dim>
					<dim>4</dim>
					<dim>32</dim>
					<dim>1344</dim>
				</port>
				<port id="4" precision="FP32" names="584,k.1">
					<dim>1</dim>
					<dim>4</dim>
					<dim>32</dim>
					<dim>1344</dim>
				</port>
				<port id="5" precision="FP32" names="585,v.1">
					<dim>1</dim>
					<dim>4</dim>
					<dim>64</dim>
					<dim>1344</dim>
				</port>
			</output>
		</layer>
		<layer id="283" name="__module.model.10.m.0.attn/aten::matmul/MatMul" type="MatMul" version="opset1">
			<data transpose_a="true" transpose_b="false" />
			<input>
				<port id="0" precision="FP32">
					<dim>1</dim>
					<dim>4</dim>
					<dim>32</dim>
					<dim>1344</dim>
				</port>
				<port id="1" precision="FP32">
					<dim>1</dim>
					<dim>4</dim>
					<dim>32</dim>
					<dim>1344</dim>
				</port>
			</input>
			<output>
				<port id="2" precision="FP32" names="587">
					<dim>1</dim>
					<dim>4</dim>
					<dim>1344</dim>
					<dim>1344</dim>
				</port>
			</output>
		</layer>
		<layer id="284" name="Constant_15649" type="Const" version="opset1">
			<data element_type="f32" shape="1, 1, 1, 1" offset="9792424" size="4" />
			<output>
				<port id="0" precision="FP32">
					<dim>1</dim>
					<dim>1</dim>
					<dim>1</dim>
					<dim>1</dim>
				</port>
			</output>
		</layer>
		<layer id="285" name="__module.model.10.m.0.attn/aten::mul/Multiply" type="Multiply" version="opset1">
			<data auto_broadcast="numpy" />
			<input>
				<port id="0" precision="FP32">
					<dim>1</dim>
					<dim>4</dim>
					<dim>1344</dim>
					<dim>1344</dim>
				</port>
				<port id="1" precision="FP32">
					<dim>1</dim>
					<dim>1</dim>
					<dim>1</dim>
					<dim>1</dim>
				</port>
			</input>
			<output>
				<port id="2" precision="FP32" names="588,attn.1">
					<dim>1</dim>
					<dim>4</dim>
					<dim>1344</dim>
					<dim>1344</dim>
				</port>
			</output>
		</layer>
		<layer id="286" name="__module.model.10.m.0.attn/aten::softmax/Softmax" type="SoftMax" version="opset8">
			<data axis="-1" />
			<input>
				<port id="0" precision="FP32">
					<dim>1</dim>
					<dim>4</dim>
					<dim>1344</dim>
					<dim>1344</dim>
				</port>
			</input>
			<output>
				<port id="1" precision="FP32" names="589,attn.3">
					<dim>1</dim>
					<dim>4</dim>
					<dim>1344</dim>
					<dim>1344</dim>
				</port>
			</output>
		</layer>
		<layer id="287" name="__module.model.10.m.0.attn/aten::matmul/MatMul_1" type="MatMul" version="opset1">
			<data transpose_a="false" transpose_b="true" />
			<input>
				<port id="0" precision="FP32">
					<dim>1</dim>
					<dim>4</dim>
					<dim>64</dim>
					<dim>1344</dim>
				</port>
				<port id="1" precision="FP32">
					<dim>1</dim>
					<dim>4</dim>
					<dim>1344</dim>
					<dim>1344</dim>
				</port>
			</input>
			<output>
				<port id="2" precision="FP32" names="591">
					<dim>1</dim>
					<dim>4</dim>
					<dim>64</dim>
					<dim>1344</dim>
				</port>
			</output>
		</layer>
		<layer id="288" name="Constant_2301" type="Const" version="opset1">
			<data element_type="i64" shape="4" offset="9792428" size="32" />
			<rt_info>
				<attribute name="precise" version="0" />
			</rt_info>
			<output>
				<port id="0" precision="I64">
					<dim>4</dim>
				</port>
			</output>
		</layer>
		<layer id="289" name="__module.model.10.m.0.attn/aten::view/Reshape_1" type="Reshape" version="opset1">
			<data special_zero="false" />
			<input>
				<port id="0" precision="FP32">
					<dim>1</dim>
					<dim>4</dim>
					<dim>64</dim>
					<dim>1344</dim>
				</port>
				<port id="1" precision="I64">
					<dim>4</dim>
				</port>
			</input>
			<output>
				<port id="2" precision="FP32" names="593">
					<dim>1</dim>
					<dim>256</dim>
					<dim>28</dim>
					<dim>48</dim>
				</port>
			</output>
		</layer>
		<layer id="290" name="Constant_2314" type="Const" version="opset1">
			<data element_type="i64" shape="4" offset="9792428" size="32" />
			<rt_info>
				<attribute name="precise" version="0" />
			</rt_info>
			<output>
				<port id="0" precision="I64">
					<dim>4</dim>
				</port>
			</output>
		</layer>
		<layer id="291" name="__module.model.10.m.0.attn/aten::reshape/Reshape" type="Reshape" version="opset1">
			<data special_zero="false" />
			<input>
				<port id="0" precision="FP32">
					<dim>1</dim>
					<dim>4</dim>
					<dim>64</dim>
					<dim>1344</dim>
				</port>
				<port id="1" precision="I64">
					<dim>4</dim>
				</port>
			</input>
			<output>
				<port id="2" precision="FP32" names="595,input.135">
					<dim>1</dim>
					<dim>256</dim>
					<dim>28</dim>
					<dim>48</dim>
				</port>
			</output>
		</layer>
		<layer id="292" name="__module.model.10.m.0.attn.pe.conv/aten::_convolution/Reshape_compressed" type="Const" version="opset1">
			<data element_type="f16" shape="256, 1, 1, 3, 3" offset="9792460" size="4608" />
			<output>
				<port id="0" precision="FP16">
					<dim>256</dim>
					<dim>1</dim>
					<dim>1</dim>
					<dim>3</dim>
					<dim>3</dim>
				</port>
			</output>
		</layer>
		<layer id="293" name="__module.model.10.m.0.attn.pe.conv/aten::_convolution/Reshape" type="Convert" version="opset1">
			<data destination_type="f32" />
			<rt_info>
				<attribute name="decompression" version="0" />
			</rt_info>
			<input>
				<port id="0" precision="FP16">
					<dim>256</dim>
					<dim>1</dim>
					<dim>1</dim>
					<dim>3</dim>
					<dim>3</dim>
				</port>
			</input>
			<output>
				<port id="1" precision="FP32">
					<dim>256</dim>
					<dim>1</dim>
					<dim>1</dim>
					<dim>3</dim>
					<dim>3</dim>
				</port>
			</output>
		</layer>
		<layer id="294" name="__module.model.10.m.0.attn.pe.conv/aten::_convolution/GroupConvolution" type="GroupConvolution" version="opset1">
			<data strides="1, 1" pads_begin="1, 1" pads_end="1, 1" dilations="1, 1" auto_pad="explicit" />
			<input>
				<port id="0" precision="FP32">
					<dim>1</dim>
					<dim>256</dim>
					<dim>28</dim>
					<dim>48</dim>
				</port>
				<port id="1" precision="FP32">
					<dim>256</dim>
					<dim>1</dim>
					<dim>1</dim>
					<dim>3</dim>
					<dim>3</dim>
				</port>
			</input>
			<output>
				<port id="2" precision="FP32">
					<dim>1</dim>
					<dim>256</dim>
					<dim>28</dim>
					<dim>48</dim>
				</port>
			</output>
		</layer>
		<layer id="295" name="__module.model.10.m.0.attn.pe.conv/aten::_convolution/Reshape_1_compressed" type="Const" version="opset1">
			<data element_type="f16" shape="1, 256, 1, 1" offset="9797068" size="512" />
			<output>
				<port id="0" precision="FP16">
					<dim>1</dim>
					<dim>256</dim>
					<dim>1</dim>
					<dim>1</dim>
				</port>
			</output>
		</layer>
		<layer id="296" name="__module.model.10.m.0.attn.pe.conv/aten::_convolution/Reshape_1" type="Convert" version="opset1">
			<data destination_type="f32" />
			<rt_info>
				<attribute name="decompression" version="0" />
			</rt_info>
			<input>
				<port id="0" precision="FP16">
					<dim>1</dim>
					<dim>256</dim>
					<dim>1</dim>
					<dim>1</dim>
				</port>
			</input>
			<output>
				<port id="1" precision="FP32">
					<dim>1</dim>
					<dim>256</dim>
					<dim>1</dim>
					<dim>1</dim>
				</port>
			</output>
		</layer>
		<layer id="297" name="__module.model.10.m.0.attn.pe.conv/aten::_convolution/Add" type="Add" version="opset1">
			<data auto_broadcast="numpy" />
			<input>
				<port id="0" precision="FP32">
					<dim>1</dim>
					<dim>256</dim>
					<dim>28</dim>
					<dim>48</dim>
				</port>
				<port id="1" precision="FP32">
					<dim>1</dim>
					<dim>256</dim>
					<dim>1</dim>
					<dim>1</dim>
				</port>
			</input>
			<output>
				<port id="2" precision="FP32" names="603">
					<dim>1</dim>
					<dim>256</dim>
					<dim>28</dim>
					<dim>48</dim>
				</port>
			</output>
		</layer>
		<layer id="298" name="__module.model.10.m.0.attn/aten::add/Add" type="Add" version="opset1">
			<data auto_broadcast="numpy" />
			<input>
				<port id="0" precision="FP32">
					<dim>1</dim>
					<dim>256</dim>
					<dim>28</dim>
					<dim>48</dim>
				</port>
				<port id="1" precision="FP32">
					<dim>1</dim>
					<dim>256</dim>
					<dim>28</dim>
					<dim>48</dim>
				</port>
			</input>
			<output>
				<port id="2" precision="FP32" names="604,input.137">
					<dim>1</dim>
					<dim>256</dim>
					<dim>28</dim>
					<dim>48</dim>
				</port>
			</output>
		</layer>
		<layer id="299" name="self.model.10.m.0.attn.proj.conv.weight_compressed" type="Const" version="opset1">
			<data element_type="f16" shape="256, 256, 1, 1" offset="9797580" size="131072" />
			<output>
				<port id="0" precision="FP16" names="self.model.10.m.0.attn.proj.conv.weight">
					<dim>256</dim>
					<dim>256</dim>
					<dim>1</dim>
					<dim>1</dim>
				</port>
			</output>
		</layer>
		<layer id="300" name="self.model.10.m.0.attn.proj.conv.weight" type="Convert" version="opset1">
			<data destination_type="f32" />
			<rt_info>
				<attribute name="decompression" version="0" />
			</rt_info>
			<input>
				<port id="0" precision="FP16">
					<dim>256</dim>
					<dim>256</dim>
					<dim>1</dim>
					<dim>1</dim>
				</port>
			</input>
			<output>
				<port id="1" precision="FP32">
					<dim>256</dim>
					<dim>256</dim>
					<dim>1</dim>
					<dim>1</dim>
				</port>
			</output>
		</layer>
		<layer id="301" name="__module.model.10.m.0.attn.proj.conv/aten::_convolution/Convolution" type="Convolution" version="opset1">
			<data strides="1, 1" dilations="1, 1" pads_begin="0, 0" pads_end="0, 0" auto_pad="explicit" />
			<input>
				<port id="0" precision="FP32">
					<dim>1</dim>
					<dim>256</dim>
					<dim>28</dim>
					<dim>48</dim>
				</port>
				<port id="1" precision="FP32">
					<dim>256</dim>
					<dim>256</dim>
					<dim>1</dim>
					<dim>1</dim>
				</port>
			</input>
			<output>
				<port id="2" precision="FP32">
					<dim>1</dim>
					<dim>256</dim>
					<dim>28</dim>
					<dim>48</dim>
				</port>
			</output>
		</layer>
		<layer id="302" name="__module.model.10.m.0.attn.proj.conv/aten::_convolution/Reshape_compressed" type="Const" version="opset1">
			<data element_type="f16" shape="1, 256, 1, 1" offset="9928652" size="512" />
			<output>
				<port id="0" precision="FP16">
					<dim>1</dim>
					<dim>256</dim>
					<dim>1</dim>
					<dim>1</dim>
				</port>
			</output>
		</layer>
		<layer id="303" name="__module.model.10.m.0.attn.proj.conv/aten::_convolution/Reshape" type="Convert" version="opset1">
			<data destination_type="f32" />
			<rt_info>
				<attribute name="decompression" version="0" />
			</rt_info>
			<input>
				<port id="0" precision="FP16">
					<dim>1</dim>
					<dim>256</dim>
					<dim>1</dim>
					<dim>1</dim>
				</port>
			</input>
			<output>
				<port id="1" precision="FP32">
					<dim>1</dim>
					<dim>256</dim>
					<dim>1</dim>
					<dim>1</dim>
				</port>
			</output>
		</layer>
		<layer id="304" name="__module.model.10.m.0.attn.proj.conv/aten::_convolution/Add" type="Add" version="opset1">
			<data auto_broadcast="numpy" />
			<input>
				<port id="0" precision="FP32">
					<dim>1</dim>
					<dim>256</dim>
					<dim>28</dim>
					<dim>48</dim>
				</port>
				<port id="1" precision="FP32">
					<dim>1</dim>
					<dim>256</dim>
					<dim>1</dim>
					<dim>1</dim>
				</port>
			</input>
			<output>
				<port id="2" precision="FP32" names="612">
					<dim>1</dim>
…
		<edge from-layer="230" from-port="1" to-layer="231" to-port="1" />
		<edge from-layer="231" from-port="2" to-layer="234" to-port="0" />
		<edge from-layer="232" from-port="0" to-layer="233" to-port="0" />
		<edge from-layer="233" from-port="1" to-layer="234" to-port="1" />
		<edge from-layer="234" from-port="2" to-layer="235" to-port="0" />
		<edge from-layer="235" from-port="1" to-layer="236" to-port="2" />
		<edge from-layer="236" from-port="3" to-layer="239" to-port="0" />
		<edge from-layer="237" from-port="0" to-layer="238" to-port="0" />
		<edge from-layer="238" from-port="1" to-layer="239" to-port="1" />
		<edge from-layer="239" from-port="2" to-layer="242" to-port="0" />
		<edge from-layer="240" from-port="0" to-layer="241" to-port="0" />
		<edge from-layer="241" from-port="1" to-layer="242" to-port="1" />
		<edge from-layer="242" from-port="2" to-layer="243" to-port="0" />
		<edge from-layer="243" from-port="1" to-layer="246" to-port="0" />
		<edge from-layer="243" from-port="1" to-layer="261" to-port="1" />
		<edge from-layer="244" from-port="0" to-layer="245" to-port="0" />
		<edge from-layer="245" from-port="1" to-layer="246" to-port="1" />
		<edge from-layer="246" from-port="2" to-layer="249" to-port="0" />
		<edge from-layer="247" from-port="0" to-layer="248" to-port="0" />
		<edge from-layer="248" from-port="1" to-layer="249" to-port="1" />
		<edge from-layer="249" from-port="2" to-layer="253" to-port="0" />
		<edge from-layer="249" from-port="2" to-layer="250" to-port="0" />
		<edge from-layer="250" from-port="1" to-layer="253" to-port="1" />
		<edge from-layer="250" from-port="1" to-layer="251" to-port="0" />
		<edge from-layer="251" from-port="1" to-layer="253" to-port="2" />
		<edge from-layer="251" from-port="1" to-layer="252" to-port="0" />
		<edge from-layer="252" from-port="1" to-layer="253" to-port="3" />
		<edge from-layer="253" from-port="4" to-layer="256" to-port="0" />
		<edge from-layer="254" from-port="0" to-layer="255" to-port="0" />
		<edge from-layer="255" from-port="1" to-layer="256" to-port="1" />
		<edge from-layer="256" from-port="2" to-layer="259" to-port="0" />
		<edge from-layer="257" from-port="0" to-layer="258" to-port="0" />
		<edge from-layer="258" from-port="1" to-layer="259" to-port="1" />
		<edge from-layer="259" from-port="2" to-layer="260" to-port="0" />
		<edge from-layer="260" from-port="1" to-layer="261" to-port="0" />
		<edge from-layer="261" from-port="2" to-layer="264" to-port="0" />
		<edge from-layer="262" from-port="0" to-layer="263" to-port="0" />
		<edge from-layer="263" from-port="1" to-layer="264" to-port="1" />
		<edge from-layer="264" from-port="2" to-layer="267" to-port="0" />
		<edge from-layer="265" from-port="0" to-layer="266" to-port="0" />
		<edge from-layer="266" from-port="1" to-layer="267" to-port="1" />
		<edge from-layer="267" from-port="2" to-layer="268" to-port="0" />
		<edge from-layer="268" from-port="1" to-layer="271" to-port="0" />
		<edge from-layer="269" from-port="0" to-layer="271" to-port="1" />
		<edge from-layer="270" from-port="0" to-layer="271" to-port="2" />
		<edge from-layer="271" from-port="4" to-layer="305" to-port="0" />
		<edge from-layer="271" from-port="3" to-layer="320" to-port="0" />
		<edge from-layer="271" from-port="4" to-layer="274" to-port="0" />
		<edge from-layer="272" from-port="0" to-layer="273" to-port="0" />
		<edge from-layer="273" from-port="1" to-layer="274" to-port="1" />
		<edge from-layer="274" from-port="2" to-layer="277" to-port="0" />
		<edge from-layer="275" from-port="0" to-layer="276" to-port="0" />
		<edge from-layer="276" from-port="1" to-layer="277" to-port="1" />
		<edge from-layer="277" from-port="2" to-layer="279" to-port="0" />
		<edge from-layer="278" from-port="0" to-layer="279" to-port="1" />
		<edge from-layer="279" from-port="2" to-layer="282" to-port="0" />
		<edge from-layer="280" from-port="0" to-layer="282" to-port="1" />
		<edge from-layer="281" from-port="0" to-layer="282" to-port="2" />
		<edge from-layer="282" from-port="3" to-layer="283" to-port="0" />
		<edge from-layer="282" from-port="5" to-layer="291" to-port="0" />
		<edge from-layer="282" from-port="5" to-layer="287" to-port="0" />
		<edge from-layer="282" from-port="4" to-layer="283" to-port="1" />
		<edge from-layer="283" from-port="2" to-layer="285" to-port="0" />
		<edge from-layer="284" from-port="0" to-layer="285" to-port="1" />
		<edge from-layer="285" from-port="2" to-layer="286" to-port="0" />
		<edge from-layer="286" from-port="1" to-layer="287" to-port="1" />
		<edge from-layer="287" from-port="2" to-layer="289" to-port="0" />
		<edge from-layer="288" from-port="0" to-layer="289" to-port="1" />
		<edge from-layer="289" from-port="2" to-layer="298" to-port="0" />
		<edge from-layer="290" from-port="0" to-layer="291" to-port="1" />
		<edge from-layer="291" from-port="2" to-layer="294" to-port="0" />
		<edge from-layer="292" from-port="0" to-layer="293" to-port="0" />
		<edge from-layer="293" from-port="1" to-layer="294" to-port="1" />
		<edge from-layer="294" from-port="2" to-layer="297" to-port="0" />
		<edge from-layer="295" from-port="0" to-layer="296" to-port="0" />
		<edge from-layer="296" from-port="1" to-layer="297" to-port="1" />
		<edge from-layer="297" from-port="2" to-layer="298" to-port="1" />
		<edge from-layer="298" from-port="2" to-layer="301" to-port="0" />
		<edge from-layer="299" from-port="0" to-layer="300" to-port="0" />
		<edge from-layer="300" from-port="1" to-layer="301" to-port="1" />
		<edge from-layer="301" from-port="2" to-layer="304" to-port="0" />
		<edge from-layer="302" from-port="0" to-layer="303" to-port="0" />
		<edge from-layer="303" from-port="1" to-layer="304" to-port="1" />
		<edge from-layer="304" from-port="2" to-layer="305" to-port="1" />
		<edge from-layer="305" from-port="2" to-layer="308" to-port="0" />
		<edge from-layer="305" from-port="2" to-layer="319" to-port="0" />
		<edge from-layer="306" from-port="0" to-layer="307" to-port="0" />
		<edge from-layer="307" from-port="1" to-layer="308" to-port="1" />
		<edge from-layer="308" from-port="2" to-layer="311" to-port="0" />
		<edge from-layer="309" from-port="0" to-layer="310" to-port="0" />
		<edge from-layer="310" from-port="1" to-layer="311" to-port="1" />
		<edge from-layer="311" from-port="2" to-layer="312" to-port="0" />
		<edge from-layer="312" from-port="1" to-layer="315" to-port="0" />
		<edge from-layer="313" from-port="0" to-layer="314" to-port="0" />
		<edge from-layer="314" from-port="1" to-layer="315" to-port="1" />
		<edge from-layer="315" from-port="2" to-layer="318" to-port="0" />
		<edge from-layer="316" from-port="0" to-layer="317" to-port="0" />
		<edge from-layer="317" from-port="1" to-layer="318" to-port="1" />
		<edge from-layer="318" from-port="2" to-layer="319" to-port="1" />
		<edge from-layer="319" from-port="2" to-layer="320" to-port="1" />
		<edge from-layer="320" from-port="2" to-layer="323" to-port="0" />
		<edge from-layer="321" from-port="0" to-layer="322" to-port="0" />
		<edge from-layer="322" from-port="1" to-layer="323" to-port="1" />
		<edge from-layer="323" from-port="2" to-layer="326" to-port="0" />
		<edge from-layer="324" from-port="0" to-layer="325" to-port="0" />
		<edge from-layer="325" from-port="1" to-layer="326" to-port="1" />
		<edge from-layer="326" from-port="2" to-layer="327" to-port="0" />
		<edge from-layer="327" from-port="1" to-layer="605" to-port="1" />
		<edge from-layer="327" from-port="1" to-layer="330" to-port="0" />
		<edge from-layer="328" from-port="0" to-layer="330" to-port="1" />
		<edge from-layer="329" from-port="0" to-layer="330" to-port="2" />
		<edge from-layer="330" from-port="3" to-layer="331" to-port="0" />
		<edge from-layer="331" from-port="2" to-layer="334" to-port="0" />
		<edge from-layer="332" from-port="0" to-layer="333" to-port="0" />
		<edge from-layer="333" from-port="1" to-layer="334" to-port="1" />
		<edge from-layer="334" from-port="2" to-layer="337" to-port="0" />
		<edge from-layer="335" from-port="0" to-layer="336" to-port="0" />
		<edge from-layer="336" from-port="1" to-layer="337" to-port="1" />
		<edge from-layer="337" from-port="2" to-layer="338" to-port="0" />
		<edge from-layer="338" from-port="1" to-layer="341" to-port="0" />
		<edge from-layer="339" from-port="0" to-layer="341" to-port="1" />
		<edge from-layer="340" from-port="0" to-layer="341" to-port="2" />
		<edge from-layer="341" from-port="3" to-layer="394" to-port="0" />
		<edge from-layer="341" from-port="4" to-layer="394" to-port="1" />
		<edge from-layer="341" from-port="4" to-layer="381" to-port="0" />
		<edge from-layer="341" from-port="4" to-layer="344" to-port="0" />
		<edge from-layer="342" from-port="0" to-layer="343" to-port="0" />
		<edge from-layer="343" from-port="1" to-layer="344" to-port="1" />
		<edge from-layer="344" from-port="2" to-layer="347" to-port="0" />
		<edge from-layer="345" from-port="0" to-layer="346" to-port="0" />
		<edge from-layer="346" from-port="1" to-layer="347" to-port="1" />
		<edge from-layer="347" from-port="2" to-layer="348" to-port="0" />
		<edge from-layer="348" from-port="1" to-layer="351" to-port="0" />
		<edge from-layer="348" from-port="1" to-layer="363" to-port="0" />
		<edge from-layer="349" from-port="0" to-layer="350" to-port="0" />
		<edge from-layer="350" from-port="1" to-layer="351" to-port="1" />
		<edge from-layer="351" from-port="2" to-layer="354" to-port="0" />
		<edge from-layer="352" from-port="0" to-layer="353" to-port="0" />
		<edge from-layer="353" from-port="1" to-layer="354" to-port="1" />
		<edge from-layer="354" from-port="2" to-layer="355" to-port="0" />
		<edge from-layer="355" from-port="1" to-layer="358" to-port="0" />
		<edge from-layer="356" from-port="0" to-layer="357" to-port="0" />
		<edge from-layer="357" from-port="1" to-layer="358" to-port="1" />
		<edge from-layer="358" from-port="2" to-layer="361" to-port="0" />
		<edge from-layer="359" from-port="0" to-layer="360" to-port="0" />
		<edge from-layer="360" from-port="1" to-layer="361" to-port="1" />
		<edge from-layer="361" from-port="2" to-layer="362" to-port="0" />
		<edge from-layer="362" from-port="1" to-layer="363" to-port="1" />
		<edge from-layer="363" from-port="2" to-layer="366" to-port="0" />
		<edge from-layer="363" from-port="2" to-layer="378" to-port="0" />
		<edge from-layer="364" from-port="0" to-layer="365" to-port="0" />
		<edge from-layer="365" from-port="1" to-layer="366" to-port="1" />
		<edge from-layer="366" from-port="2" to-layer="369" to-port="0" />
		<edge from-layer="367" from-port="0" to-layer="368" to-port="0" />
		<edge from-layer="368" from-port="1" to-layer="369" to-port="1" />
		<edge from-layer="369" from-port="2" to-layer="370" to-port="0" />
		<edge from-layer="370" from-port="1" to-layer="373" to-port="0" />
		<edge from-layer="371" from-port="0" to-layer="372" to-port="0" />
		<edge from-layer="372" from-port="1" to-layer="373" to-port="1" />
		<edge from-layer="373" from-port="2" to-layer="376" to-port="0" />
		<edge from-layer="374" from-port="0" to-layer="375" to-port="0" />
		<edge from-layer="375" from-port="1" to-layer="376" to-port="1" />
		<edge from-layer="376" from-port="2" to-layer="377" to-port="0" />
		<edge from-layer="377" from-port="1" to-layer="378" to-port="1" />
		<edge from-layer="378" from-port="2" to-layer="386" to-port="0" />
		<edge from-layer="379" from-port="0" to-layer="380" to-port="0" />
		<edge from-layer="380" from-port="1" to-layer="381" to-port="1" />
		<edge from-layer="381" from-port="2" to-layer="384" to-port="0" />
		<edge from-layer="382" from-port="0" to-layer="383" to-port="0" />
		<edge from-layer="383" from-port="1" to-layer="384" to-port="1" />
		<edge from-layer="384" from-port="2" to-layer="385" to-port="0" />
		<edge from-layer="385" from-port="1" to-layer="386" to-port="1" />
		<edge from-layer="386" from-port="2" to-layer="389" to-port="0" />
		<edge from-layer="387" from-port="0" to-layer="388" to-port="0" />
		<edge from-layer="388" from-port="1" to-layer="389" to-port="1" />
		<edge from-layer="389" from-port="2" to-layer="392" to-port="0" />
		<edge from-layer="390" from-port="0" to-layer="391" to-port="0" />
		<edge from-layer="391" from-port="1" to-layer="392" to-port="1" />
		<edge from-layer="392" from-port="2" to-layer="393" to-port="0" />
		<edge from-layer="393" from-port="1" to-layer="394" to-port="2" />
		<edge from-layer="394" from-port="3" to-layer="397" to-port="0" />
		<edge from-layer="395" from-port="0" to-layer="396" to-port="0" />
		<edge from-layer="396" from-port="1" to-layer="397" to-port="1" />
		<edge from-layer="397" from-port="2" to-layer="400" to-port="0" />
		<edge from-layer="398" from-port="0" to-layer="399" to-port="0" />
		<edge from-layer="399" from-port="1" to-layer="400" to-port="1" />
		<edge from-layer="400" from-port="2" to-layer="401" to-port="0" />
		<edge from-layer="401" from-port="1" to-layer="505" to-port="1" />
		<edge from-layer="401" from-port="1" to-layer="404" to-port="0" />
		<edge from-layer="402" from-port="0" to-layer="404" to-port="1" />
		<edge from-layer="403" from-port="0" to-layer="404" to-port="2" />
		<edge from-layer="404" from-port="3" to-layer="405" to-port="0" />
		<edge from-layer="405" from-port="2" to-layer="408" to-port="0" />
		<edge from-layer="406" from-port="0" to-layer="407" to-port="0" />
		<edge from-layer="407" from-port="1" to-layer="408" to-port="1" />
		<edge from-layer="408" from-port="2" to-layer="411" to-port="0" />
		<edge from-layer="409" from-port="0" to-layer="410" to-port="0" />
		<edge from-layer="410" from-port="1" to-layer="411" to-port="1" />
		<edge from-layer="411" from-port="2" to-layer="412" to-port="0" />
		<edge from-layer="412" from-port="1" to-layer="415" to-port="0" />
		<edge from-layer="413" from-port="0" to-layer="415" to-port="1" />
		<edge from-layer="414" from-port="0" to-layer="415" to-port="2" />
		<edge from-layer="415" from-port="3" to-layer="468" to-port="0" />
		<edge from-layer="415" from-port="4" to-layer="468" to-port="1" />
		<edge from-layer="415" from-port="4" to-layer="455" to-port="0" />
		<edge from-layer="415" from-port="4" to-layer="418" to-port="0" />
		<edge from-layer="416" from-port="0" to-layer="417" to-port="0" />
		<edge from-layer="417" from-port="1" to-layer="418" to-port="1" />
		<edge from-layer="418" from-port="2" to-layer="421" to-port="0" />
		<edge from-layer="419" from-port="0" to-layer="420" to-port="0" />
		<edge from-layer="420" from-port="1" to-layer="421" to-port="1" />
		<edge from-layer="421" from-port="2" to-layer="422" to-port="0" />
		<edge from-layer="422" from-port="1" to-layer="425" to-port="0" />
		<edge from-layer="422" from-port="1" to-layer="437" to-port="0" />
		<edge from-layer="423" from-port="0" to-layer="424" to-port="0" />
		<edge from-layer="424" from-port="1" to-layer="425" to-port="1" />
		<edge from-layer="425" from-port="2" to-layer="428" to-port="0" />
		<edge from-layer="426" from-port="0" to-layer="427" to-port="0" />
		<edge from-layer="427" from-port="1" to-layer="428" to-port="1" />
		<edge from-layer="428" from-port="2" to-layer="429" to-port="0" />
		<edge from-layer="429" from-port="1" to-layer="432" to-port="0" />
		<edge from-layer="430" from-port="0" to-layer="431" to-port="0" />
		<edge from-layer="431" from-port="1" to-layer="432" to-port="1" />
		<edge from-layer="432" from-port="2" to-layer="435" to-port="0" />
		<edge from-layer="433" from-port="0" to-layer="434" to-port="0" />
		<edge from-layer="434" from-port="1" to-layer="435" to-port="1" />
		<edge from-layer="435" from-port="2" to-layer="436" to-port="0" />
		<edge from-layer="436" from-port="1" to-layer="437" to-port="1" />
		<edge from-layer="437" from-port="2" to-layer="440" to-port="0" />
		<edge from-layer="437" from-port="2" to-layer="452" to-port="0" />
		<edge from-layer="438" from-port="0" to-layer="439" to-port="0" />
		<edge from-layer="439" from-port="1" to-layer="440" to-port="1" />
		<edge from-layer="440" from-port="2" to-layer="443" to-port="0" />
		<edge from-layer="441" from-port="0" to-layer="442" to-port="0" />
		<edge from-layer="442" from-port="1" to-layer="443" to-port="1" />
		<edge from-layer="443" from-port="2" to-layer="444" to-port="0" />
		<edge from-layer="444" from-port="1" to-layer="447" to-port="0" />
		<edge from-layer="445" from-port="0" to-layer="446" to-port="0" />
		<edge from-layer="446" from-port="1" to-layer="447" to-port="1" />
		<edge from-layer="447" from-port="2" to-layer="450" to-port="0" />
		<edge from-layer="448" from-port="0" to-layer="449" to-port="0" />
		<edge from-layer="449" from-port="1" to-layer="450" to-port="1" />
		<edge from-layer="450" from-port="2" to-layer="451" to-port="0" />
		<edge from-layer="451" from-port="1" to-layer="452" to-port="1" />
		<edge from-layer="452" from-port="2" to-layer="460" to-port="0" />
		<edge from-layer="453" from-port="0" to-layer="454" to-port="0" />
		<edge from-layer="454" from-port="1" to-layer="455" to-port="1" />
		<edge from-layer="455" from-port="2" to-layer="458" to-port="0" />
		<edge from-layer="456" from-port="0" to-layer="457" to-port="0" />
		<edge from-layer="457" from-port="1" to-layer="458" to-port="1" />
		<edge from-layer="458" from-port="2" to-layer="459" to-port="0" />
		<edge from-layer="459" from-port="1" to-layer="460" to-port="1" />
		<edge from-layer="460" from-port="2" to-layer="463" to-port="0" />
		<edge from-layer="461" from-port="0" to-layer="462" to-port="0" />
		<edge from-layer="462" from-port="1" to-layer="463" to-port="1" />
		<edge from-layer="463" from-port="2" to-layer="466" to-port="0" />
		<edge from-layer="464" from-port="0" to-layer="465" to-port="0" />
		<edge from-layer="465" from-port="1" to-layer="466" to-port="1" />
		<edge from-layer="466" from-port="2" to-layer="467" to-port="0" />
		<edge from-layer="467" from-port="1" to-layer="468" to-port="2" />
		<edge from-layer="468" from-port="3" to-layer="471" to-port="0" />
		<edge from-layer="469" from-port="0" to-layer="470" to-port="0" />
		<edge from-layer="470" from-port="1" to-layer="471" to-port="1" />
		<edge from-layer="471" from-port="2" to-layer="474" to-port="0" />
		<edge from-layer="472" from-port="0" to-layer="473" to-port="0" />
		<edge from-layer="473" from-port="1" to-layer="474" to-port="1" />
		<edge from-layer="474" from-port="2" to-layer="475" to-port="0" />
		<edge from-layer="475" from-port="1" to-layer="731" to-port="0" />
		<edge from-layer="475" from-port="1" to-layer="500" to-port="0" />
		<edge from-layer="475" from-port="1" to-layer="478" to-port="0" />
		<edge from-layer="476" from-port="0" to-layer="477" to-port="0" />
		<edge from-layer="477" from-port="1" to-layer="478" to-port="1" />
		<edge from-layer="478" from-port="2" to-layer="481" to-port="0" />
		<edge from-layer="479" from-port="0" to-layer="480" to-port="0" />
		<edge from-layer="480" from-port="1" to-layer="481" to-port="1" />
		<edge from-layer="481" from-port="2" to-layer="482" to-port="0" />
		<edge from-layer="482" from-port="1" to-layer="485" to-port="0" />
		<edge from-layer="483" from-port="0" to-layer="484" to-port="0" />
		<edge from-layer="484" from-port="1" to-layer="485" to-port="1" />
		<edge from-layer="485" from-port="2" to-layer="488" to-port="0" />
		<edge from-layer="486" from-port="0" to-layer="487" to-port="0" />
		<edge from-layer="487" from-port="1" to-layer="488" to-port="1" />
		<edge from-layer="488" from-port="2" to-layer="489" to-port="0" />
		<edge from-layer="489" from-port="1" to-layer="492" to-port="0" />
		<edge from-layer="490" from-port="0" to-layer="491" to-port="0" />
		<edge from-layer="491" from-port="1" to-layer="492" to-port="1" />
		<edge from-layer="492" from-port="2" to-layer="495" to-port="0" />
		<edge from-layer="493" from-port="0" to-layer="494" to-port="0" />
		<edge from-layer="494" from-port="1" to-layer="495" to-port="1" />
		<edge from-layer="495" from-port="2" to-layer="497" to-port="0" />
		<edge from-layer="496" from-port="0" to-layer="497" to-port="1" />
		<edge from-layer="497" from-port="2" to-layer="709" to-port="0" />
		<edge from-layer="498" from-port="0" to-layer="499" to-port="0" />
		<edge from-layer="499" from-port="1" to-layer="500" to-port="1" />
		<edge from-layer="500" from-port="2" to-layer="503" to-port="0" />
		<edge from-layer="501" from-port="0" to-layer="502" to-port="0" />
		<edge from-layer="502" from-port="1" to-layer="503" to-port="1" />
		<edge from-layer="503" from-port="2" to-layer="504" to-port="0" />
		<edge from-layer="504" from-port="1" to-layer="505" to-port="0" />
		<edge from-layer="505" from-port="2" to-layer="508" to-port="0" />
		<edge from-layer="506" from-port="0" to-layer="507" to-port="0" />
		<edge from-layer="507" from-port="1" to-layer="508" to-port="1" />
		<edge from-layer="508" from-port="2" to-layer="511" to-port="0" />
		<edge from-layer="509" from-port="0" to-layer="510" to-port="0" />
		<edge from-layer="510" from-port="1" to-layer="511" to-port="1" />
		<edge from-layer="511" from-port="2" to-layer="512" to-port="0" />
		<edge from-layer="512" from-port="1" to-layer="515" to-port="0" />
		<edge from-layer="513" from-port="0" to-layer="515" to-port="1" />
		<edge from-layer="514" from-port="0" to-layer="515" to-port="2" />
		<edge from-layer="515" from-port="4" to-layer="568" to-port="1" />
		<edge from-layer="515" from-port="3" to-layer="568" to-port="0" />
		<edge from-layer="515" from-port="4" to-layer="518" to-port="0" />
		<edge from-layer="515" from-port="4" to-layer="555" to-port="0" />
		<edge from-layer="516" from-port="0" to-layer="517" to-port="0" />
		<edge from-layer="517" from-port="1" to-layer="518" to-port="1" />
		<edge from-layer="518" from-port="2" to-layer="521" to-port="0" />
		<edge from-layer="519" from-port="0" to-layer="520" to-port="0" />
		<edge from-layer="520" from-port="1" to-layer="521" to-port="1" />
		<edge from-layer="521" from-port="2" to-layer="522" to-port="0" />
		<edge from-layer="522" from-port="1" to-layer="537" to-port="0" />
		<edge from-layer="522" from-port="1" to-layer="525" to-port="0" />
		<edge from-layer="523" from-port="0" to-layer="524" to-port="0" />
		<edge from-layer="524" from-port="1" to-layer="525" to-port="1" />
		<edge from-layer="525" from-port="2" to-layer="528" to-port="0" />
		<edge from-layer="526" from-port="0" to-layer="527" to-port="0" />
		<edge from-layer="527" from-port="1" to-layer="528" to-port="1" />
		<edge from-layer="528" from-port="2" to-layer="529" to-port="0" />
		<edge from-layer="529" from-port="1" to-layer="532" to-port="0" />
		<edge from-layer="530" from-port="0" to-layer="531" to-port="0" />
		<edge from-layer="531" from-port="1" to-layer="532" to-port="1" />
		<edge from-layer="532" from-port="2" to-layer="535" to-port="0" />
		<edge from-layer="533" from-port="0" to-layer="534" to-port="0" />
		<edge from-layer="534" from-port="1" to-layer="535" to-port="1" />
		<edge from-layer="535" from-port="2" to-layer="536" to-port="0" />
		<edge from-layer="536" from-port="1" to-layer="537" to-port="1" />
		<edge from-layer="537" from-port="2" to-layer="540" to-port="0" />
		<edge from-layer="537" from-port="2" to-layer="552" to-port="0" />
		<edge from-layer="538" from-port="0" to-layer="539" to-port="0" />
		<edge from-layer="539" from-port="1" to-layer="540" to-port="1" />
		<edge from-layer="540" from-port="2" to-layer="543" to-port="0" />
		<edge from-layer="541" from-port="0" to-layer="542" to-port="0" />
		<edge from-layer="542" from-port="1" to-layer="543" to-port="1" />
		<edge from-layer="543" from-port="2" to-layer="544" to-port="0" />
		<edge from-layer="544" from-port="1" to-layer="547" to-port="0" />
		<edge from-layer="545" from-port="0" to-layer="546" to-port="0" />
		<edge from-layer="546" from-port="1" to-layer="547" to-port="1" />
		<edge from-layer="547" from-port="2" to-layer="550" to-port="0" />
		<edge from-layer="548" from-port="0" to-layer="549" to-port="0" />
		<edge from-layer="549" from-port="1" to-layer="550" to-port="1" />
		<edge from-layer="550" from-port="2" to-layer="551" to-port="0" />
		<edge from-layer="551" from-port="1" to-layer="552" to-port="1" />
		<edge from-layer="552" from-port="2" to-layer="560" to-port="0" />
		<edge from-layer="553" from-port="0" to-layer="554" to-port="0" />
		<edge from-layer="554" from-port="1" to-layer="555" to-port="1" />
		<edge from-layer="555" from-port="2" to-layer="558" to-port="0" />
		<edge from-layer="556" from-port="0" to-layer="557" to-port="0" />
		<edge from-layer="557" from-port="1" to-layer="558" to-port="1" />
		<edge from-layer="558" from-port="2" to-layer="559" to-port="0" />
		<edge from-layer="559" from-port="1" to-layer="560" to-port="1" />
		<edge from-layer="560" from-port="2" to-layer="563" to-port="0" />
		<edge from-layer="561" from-port="0" to-layer="562" to-port="0" />
		<edge from-layer="562" from-port="1" to-layer="563" to-port="1" />
		<edge from-layer="563" from-port="2" to-layer="566" to-port="0" />
		<edge from-layer="564" from-port="0" to-layer="565" to-port="0" />
		<edge from-layer="565" from-port="1" to-layer="566" to-port="1" />
		<edge from-layer="566" from-port="2" to-layer="567" to-port="0" />
		<edge from-layer="567" from-port="1" to-layer="568" to-port="2" />
		<edge from-layer="568" from-port="3" to-layer="571" to-port="0" />
		<edge from-layer="569" from-port="0" to-layer="570" to-port="0" />
		<edge from-layer="570" from-port="1" to-layer="571" to-port="1" />
		<edge from-layer="571" from-port="2" to-layer="574" to-port="0" />
		<edge from-layer="572" from-port="0" to-layer="573" to-port="0" />
		<edge from-layer="573" from-port="1" to-layer="574" to-port="1" />
		<edge from-layer="574" from-port="2" to-layer="575" to-port="0" />
		<edge from-layer="575" from-port="1" to-layer="600" to-port="0" />
		<edge from-layer="575" from-port="1" to-layer="767" to-port="0" />
		<edge from-layer="575" from-port="1" to-layer="578" to-port="0" />
		<edge from-layer="576" from-port="0" to-layer="577" to-port="0" />
		<edge from-layer="577" from-port="1" to-layer="578" to-port="1" />
		<edge from-layer="578" from-port="2" to-layer="581" to-port="0" />
		<edge from-layer="579" from-port="0" to-layer="580" to-port="0" />
		<edge from-layer="580" from-port="1" to-layer="581" to-port="1" />
		<edge from-layer="581" from-port="2" to-layer="582" to-port="0" />
		<edge from-layer="582" from-port="1" to-layer="585" to-port="0" />
		<edge from-layer="583" from-port="0" to-layer="584" to-port="0" />
		<edge from-layer="584" from-port="1" to-layer="585" to-port="1" />
		<edge from-layer="585" from-port="2" to-layer="588" to-port="0" />
		<edge from-layer="586" from-port="0" to-layer="587" to-port="0" />
		<edge from-layer="587" from-port="1" to-layer="588" to-port="1" />
		<edge from-layer="588" from-port="2" to-layer="589" to-port="0" />
		<edge from-layer="589" from-port="1" to-layer="592" to-port="0" />
		<edge from-layer="590" from-port="0" to-layer="591" to-port="0" />
		<edge from-layer="591" from-port="1" to-layer="592" to-port="1" />
		<edge from-layer="592" from-port="2" to-layer="595" to-port="0" />
		<edge from-layer="593" from-port="0" to-layer="594" to-port="0" />
		<edge from-layer="594" from-port="1" to-layer="595" to-port="1" />
		<edge from-layer="595" from-port="2" to-layer="597" to-port="0" />
		<edge from-layer="596" from-port="0" to-layer="597" to-port="1" />
		<edge from-layer="597" from-port="2" to-layer="709" to-port="1" />
		<edge from-layer="598" from-port="0" to-layer="599" to-port="0" />
		<edge from-layer="599" from-port="1" to-layer="600" to-port="1" />
		<edge from-layer="600" from-port="2" to-layer="603" to-port="0" />
		<edge from-layer="601" from-port="0" to-layer="602" to-port="0" />
		<edge from-layer="602" from-port="1" to-layer="603" to-port="1" />
		<edge from-layer="603" from-port="2" to-layer="604" to-port="0" />
		<edge from-layer="604" from-port="1" to-layer="605" to-port="0" />
		<edge from-layer="605" from-port="2" to-layer="608" to-port="0" />
		<edge from-layer="606" from-port="0" to-layer="607" to-port="0" />
		<edge from-layer="607" from-port="1" to-layer="608" to-port="1" />
		<edge from-layer="608" from-port="2" to-layer="611" to-port="0" />
		<edge from-layer="609" from-port="0" to-layer="610" to-port="0" />
		<edge from-layer="610" from-port="1" to-layer="611" to-port="1" />
		<edge from-layer="611" from-port="2" to-layer="612" to-port="0" />
		<edge from-layer="612" from-port="1" to-layer="615" to-port="0" />
		<edge from-layer="613" from-port="0" to-layer="615" to-port="1" />
		<edge from-layer="614" from-port="0" to-layer="615" to-port="2" />
		<edge from-layer="615" from-port="4" to-layer="679" to-port="1" />
		<edge from-layer="615" from-port="3" to-layer="679" to-port="0" />
		<edge from-layer="615" from-port="4" to-layer="630" to-port="0" />
		<edge from-layer="615" from-port="4" to-layer="618" to-port="0" />
		<edge from-layer="616" from-port="0" to-layer="617" to-port="0" />
		<edge from-layer="617" from-port="1" to-layer="618" to-port="1" />
		<edge from-layer="618" from-port="2" to-layer="621" to-port="0" />
		<edge from-layer="619" from-port="0" to-layer="620" to-port="0" />
		<edge from-layer="620" from-port="1" to-layer="621" to-port="1" />
		<edge from-layer="621" from-port="2" to-layer="622" to-port="0" />
		<edge from-layer="622" from-port="1" to-layer="625" to-port="0" />
		<edge from-layer="623" from-port="0" to-layer="624" to-port="0" />
		<edge from-layer="624" from-port="1" to-layer="625" to-port="1" />
		<edge from-layer="625" from-port="2" to-layer="628" to-port="0" />
		<edge from-layer="626" from-port="0" to-layer="627" to-port="0" />
		<edge from-layer="627" from-port="1" to-layer="628" to-port="1" />
		<edge from-layer="628" from-port="2" to-layer="629" to-port="0" />
		<edge from-layer="629" from-port="1" to-layer="630" to-port="1" />
		<edge from-layer="630" from-port="2" to-layer="633" to-port="0" />
		<edge from-layer="630" from-port="2" to-layer="664" to-port="0" />
		<edge from-layer="631" from-port="0" to-layer="632" to-port="0" />
		<edge from-layer="632" from-port="1" to-layer="633" to-port="1" />
		<edge from-layer="633" from-port="2" to-layer="636" to-port="0" />
		<edge from-layer="634" from-port="0" to-layer="635" to-port="0" />
		<edge from-layer="635" from-port="1" to-layer="636" to-port="1" />
		<edge from-layer="636" from-port="2" to-layer="638" to-port="0" />
		<edge from-layer="637" from-port="0" to-layer="638" to-port="1" />
		<edge from-layer="638" from-port="2" to-layer="641" to-port="0" />
		<edge from-layer="639" from-port="0" to-layer="641" to-port="1" />
		<edge from-layer="640" from-port="0" to-layer="641" to-port="2" />
		<edge from-layer="641" from-port="4" to-layer="642" to-port="1" />
		<edge from-layer="641" from-port="3" to-layer="642" to-port="0" />
		<edge from-layer="641" from-port="5" to-layer="650" to-port="0" />
		<edge from-layer="641" from-port="5" to-layer="646" to-port="0" />
		<edge from-layer="642" from-port="2" to-layer="644" to-port="0" />
		<edge from-layer="643" from-port="0" to-layer="644" to-port="1" />
		<edge from-layer="644" from-port="2" to-layer="645" to-port="0" />
		<edge from-layer="645" from-port="1" to-layer="646" to-port="1" />
		<edge from-layer="646" from-port="2" to-layer="648" to-port="0" />
		<edge from-layer="647" from-port="0" to-layer="648" to-port="1" />
		<edge from-layer="648" from-port="2" to-layer="657" to-port="0" />
		<edge from-layer="649" from-port="0" to-layer="650" to-port="1" />
		<edge from-layer="650" from-port="2" to-layer="653" to-port="0" />
		<edge from-layer="651" from-port="0" to-layer="652" to-port="0" />
		<edge from-layer="652" from-port="1" to-layer="653" to-port="1" />
		<edge from-layer="653" from-port="2" to-layer="656" to-port="0" />
		<edge from-layer="654" from-port="0" to-layer="655" to-port="0" />
		<edge from-layer="655" from-port="1" to-layer="656" to-port="1" />
		<edge from-layer="656" from-port="2" to-layer="657" to-port="1" />
		<edge from-layer="657" from-port="2" to-layer="660" to-port="0" />
		<edge from-layer="658" from-port="0" to-layer="659" to-port="0" />
		<edge from-layer="659" from-port="1" to-layer="660" to-port="1" />
		<edge from-layer="660" from-port="2" to-layer="663" to-port="0" />
		<edge from-layer="661" from-port="0" to-layer="662" to-port="0" />
		<edge from-layer="662" from-port="1" to-layer="663" to-port="1" />
		<edge from-layer="663" from-port="2" to-layer="664" to-port="1" />
		<edge from-layer="664" from-port="2" to-layer="667" to-port="0" />
		<edge from-layer="664" from-port="2" to-layer="678" to-port="0" />
		<edge from-layer="665" from-port="0" to-layer="666" to-port="0" />
		<edge from-layer="666" from-port="1" to-layer="667" to-port="1" />
		<edge from-layer="667" from-port="2" to-layer="670" to-port="0" />
		<edge from-layer="668" from-port="0" to-layer="669" to-port="0" />
		<edge from-layer="669" from-port="1" to-layer="670" to-port="1" />
		<edge from-layer="670" from-port="2" to-layer="671" to-port="0" />
		<edge from-layer="671" from-port="1" to-layer="674" to-port="0" />
		<edge from-layer="672" from-port="0" to-layer="673" to-port="0" />
		<edge from-layer="673" from-port="1" to-layer="674" to-port="1" />
		<edge from-layer="674" from-port="2" to-layer="677" to-port="0" />
		<edge from-layer="675" from-port="0" to-layer="676" to-port="0" />
		<edge from-layer="676" from-port="1" to-layer="677" to-port="1" />
		<edge from-layer="677" from-port="2" to-layer="678" to-port="1" />
		<edge from-layer="678" from-port="2" to-layer="679" to-port="2" />
		<edge from-layer="679" from-port="3" to-layer="682" to-port="0" />
		<edge from-layer="680" from-port="0" to-layer="681" to-port="0" />
		<edge from-layer="681" from-port="1" to-layer="682" to-port="1" />
		<edge from-layer="682" from-port="2" to-layer="685" to-port="0" />
		<edge from-layer="683" from-port="0" to-layer="684" to-port="0" />
		<edge from-layer="684" from-port="1" to-layer="685" to-port="1" />
		<edge from-layer="685" from-port="2" to-layer="686" to-port="0" />
		<edge from-layer="686" from-port="1" to-layer="689" to-port="0" />
		<edge from-layer="686" from-port="1" to-layer="803" to-port="0" />
		<edge from-layer="687" from-port="0" to-layer="688" to-port="0" />
		<edge from-layer="688" from-port="1" to-layer="689" to-port="1" />
		<edge from-layer="689" from-port="2" to-layer="692" to-port="0" />
		<edge from-layer="690" from-port="0" to-layer="691" to-port="0" />
		<edge from-layer="691" from-port="1" to-layer="692" to-port="1" />
		<edge from-layer="692" from-port="2" to-layer="693" to-port="0" />
		<edge from-layer="693" from-port="1" to-layer="696" to-port="0" />
		<edge from-layer="694" from-port="0" to-layer="695" to-port="0" />
		<edge from-layer="695" from-port="1" to-layer="696" to-port="1" />
		<edge from-layer="696" from-port="2" to-layer="699" to-port="0" />
		<edge from-layer="697" from-port="0" to-layer="698" to-port="0" />
		<edge from-layer="698" from-port="1" to-layer="699" to-port="1" />
		<edge from-layer="699" from-port="2" to-layer="700" to-port="0" />
		<edge from-layer="700" from-port="1" to-layer="703" to-port="0" />
		<edge from-layer="701" from-port="0" to-layer="702" to-port="0" />
		<edge from-layer="702" from-port="1" to-layer="703" to-port="1" />
		<edge from-layer="703" from-port="2" to-layer="706" to-port="0" />
		<edge from-layer="704" from-port="0" to-layer="705" to-port="0" />
		<edge from-layer="705" from-port="1" to-layer="706" to-port="1" />
		<edge from-layer="706" from-port="2" to-layer="708" to-port="0" />
		<edge from-layer="707" from-port="0" to-layer="708" to-port="1" />
		<edge from-layer="708" from-port="2" to-layer="709" to-port="2" />
		<edge from-layer="709" from-port="3" to-layer="711" to-port="0" />
		<edge from-layer="709" from-port="3" to-layer="722" to-port="0" />
		<edge from-layer="710" from-port="0" to-layer="869" to-port="1" />
		<edge from-layer="710" from-port="0" to-layer="713" to-port="1" />
		<edge from-layer="710" from-port="0" to-layer="722" to-port="1" />
		<edge from-layer="711" from-port="1" to-layer="713" to-port="0" />
		<edge from-layer="712" from-port="0" to-layer="713" to-port="2" />
		<edge from-layer="712" from-port="0" to-layer="717" to-port="1" />
		<edge from-layer="713" from-port="3" to-layer="715" to-port="0" />
		<edge from-layer="713" from-port="3" to-layer="716" to-port="0" />
		<edge from-layer="714" from-port="0" to-layer="715" to-port="1" />
		<edge from-layer="714" from-port="0" to-layer="716" to-port="1" />
		<edge from-layer="715" from-port="2" to-layer="719" to-port="0" />
		<edge from-layer="716" from-port="2" to-layer="717" to-port="0" />
		<edge from-layer="717" from-port="2" to-layer="718" to-port="0" />
		<edge from-layer="718" from-port="1" to-layer="719" to-port="1" />
		<edge from-layer="719" from-port="2" to-layer="721" to-port="0" />
		<edge from-layer="720" from-port="0" to-layer="721" to-port="1" />
		<edge from-layer="721" from-port="2" to-layer="722" to-port="2" />
		<edge from-layer="722" from-port="3" to-layer="723" to-port="1" />
		<edge from-layer="722" from-port="4" to-layer="724" to-port="1" />
		<edge from-layer="723" from-port="2" to-layer="725" to-port="0" />
		<edge from-layer="724" from-port="2" to-layer="725" to-port="1" />
		<edge from-layer="725" from-port="2" to-layer="728" to-port="0" />
		<edge from-layer="726" from-port="0" to-layer="727" to-port="0" />
		<edge from-layer="727" from-port="1" to-layer="728" to-port="1" />
		<edge from-layer="728" from-port="2" to-layer="839" to-port="0" />
		<edge from-layer="729" from-port="0" to-layer="730" to-port="0" />
		<edge from-layer="730" from-port="1" to-layer="731" to-port="1" />
		<edge from-layer="731" from-port="2" to-layer="734" to-port="0" />
		<edge from-layer="732" from-port="0" to-layer="733" to-port="0" />
		<edge from-layer="733" from-port="1" to-layer="734" to-port="1" />
		<edge from-layer="734" from-port="2" to-layer="735" to-port="0" />
		<edge from-layer="735" from-port="1" to-layer="738" to-port="0" />
		<edge from-layer="736" from-port="0" to-layer="737" to-port="0" />
		<edge from-layer="737" from-port="1" to-layer="738" to-port="1" />
		<edge from-layer="738" from-port="2" to-layer="741" to-port="0" />
		<edge from-layer="739" from-port="0" to-layer="740" to-port="0" />
		<edge from-layer="740" from-port="1" to-layer="741" to-port="1" />
		<edge from-layer="741" from-port="2" to-layer="742" to-port="0" />
		<edge from-layer="742" from-port="1" to-layer="745" to-port="0" />
		<edge from-layer="743" from-port="0" to-layer="744" to-port="0" />
		<edge from-layer="744" from-port="1" to-layer="745" to-port="1" />
		<edge from-layer="745" from-port="2" to-layer="748" to-port="0" />
		<edge from-layer="746" from-port="0" to-layer="747" to-port="0" />
		<edge from-layer="747" from-port="1" to-layer="748" to-port="1" />
		<edge from-layer="748" from-port="2" to-layer="749" to-port="0" />
		<edge from-layer="749" from-port="1" to-layer="752" to-port="0" />
		<edge from-layer="750" from-port="0" to-layer="751" to-port="0" />
		<edge from-layer="751" from-port="1" to-layer="752" to-port="1" />
		<edge from-layer="752" from-port="2" to-layer="755" to-port="0" />
		<edge from-layer="753" from-port="0" to-layer="754" to-port="0" />
		<edge from-layer="754" from-port="1" to-layer="755" to-port="1" />
		<edge from-layer="755" from-port="2" to-layer="756" to-port="0" />
		<edge from-layer="756" from-port="1" to-layer="759" to-port="0" />
		<edge from-layer="757" from-port="0" to-layer="758" to-port="0" />
		<edge from-layer="758" from-port="1" to-layer="759" to-port="1" />
		<edge from-layer="759" from-port="2" to-layer="762" to-port="0" />
		<edge from-layer="760" from-port="0" to-layer="761" to-port="0" />
		<edge from-layer="761" from-port="1" to-layer="762" to-port="1" />
		<edge from-layer="762" from-port="2" to-layer="764" to-port="0" />
		<edge from-layer="763" from-port="0" to-layer="764" to-port="1" />
		<edge from-layer="764" from-port="2" to-layer="837" to-port="0" />
		<edge from-layer="765" from-port="0" to-layer="766" to-port="0" />
		<edge from-layer="766" from-port="1" to-layer="767" to-port="1" />
		<edge from-layer="767" from-port="2" to-layer="770" to-port="0" />
		<edge from-layer="768" from-port="0" to-layer="769" to-port="0" />
		<edge from-layer="769" from-port="1" to-layer="770" to-port="1" />
		<edge from-layer="770" from-port="2" to-layer="771" to-port="0" />
		<edge from-layer="771" from-port="1" to-layer="774" to-port="0" />
		<edge from-layer="772" from-port="0" to-layer="773" to-port="0" />
		<edge from-layer="773" from-port="1" to-layer="774" to-port="1" />
		<edge from-layer="774" from-port="2" to-layer="777" to-port="0" />
		<edge from-layer="775" from-port="0" to-layer="776" to-port="0" />
		<edge from-layer="776" from-port="1" to-layer="777" to-port="1" />
		<edge from-layer="777" from-port="2" to-layer="778" to-port="0" />
		<edge from-layer="778" from-port="1" to-layer="781" to-port="0" />
		<edge from-layer="779" from-port="0" to-layer="780" to-port="0" />
		<edge from-layer="780" from-port="1" to-layer="781" to-port="1" />
		<edge from-layer="781" from-port="2" to-layer="784" to-port="0" />
		<edge from-layer="782" from-port="0" to-layer="783" to-port="0" />
		<edge from-layer="783" from-port="1" to-layer="784" to-port="1" />
		<edge from-layer="784" from-port="2" to-layer="785" to-port="0" />
		<edge from-layer="785" from-port="1" to-layer="788" to-port="0" />
		<edge from-layer="786" from-port="0" to-layer="787" to-port="0" />
		<edge from-layer="787" from-port="1" to-layer="788" to-port="1" />
		<edge from-layer="788" from-port="2" to-layer="791" to-port="0" />
		<edge from-layer="789" from-port="0" to-layer="790" to-port="0" />
		<edge from-layer="790" from-port="1" to-layer="791" to-port="1" />
		<edge from-layer="791" from-port="2" to-layer="792" to-port="0" />
		<edge from-layer="792" from-port="1" to-layer="795" to-port="0" />
		<edge from-layer="793" from-port="0" to-layer="794" to-port="0" />
		<edge from-layer="794" from-port="1" to-layer="795" to-port="1" />
		<edge from-layer="795" from-port="2" to-layer="798" to-port="0" />
		<edge from-layer="796" from-port="0" to-layer="797" to-port="0" />
		<edge from-layer="797" from-port="1" to-layer="798" to-port="1" />
		<edge from-layer="798" from-port="2" to-layer="800" to-port="0" />
		<edge from-layer="799" from-port="0" to-layer="800" to-port="1" />
		<edge from-layer="800" from-port="2" to-layer="837" to-port="1" />
		<edge from-layer="801" from-port="0" to-layer="802" to-port="0" />
		<edge from-layer="802" from-port="1" to-layer="803" to-port="1" />
		<edge from-layer="803" from-port="2" to-layer="806" to-port="0" />
		<edge from-layer="804" from-port="0" to-layer="805" to-port="0" />
		<edge from-layer="805" from-port="1" to-layer="806" to-port="1" />
		<edge from-layer="806" from-port="2" to-layer="807" to-port="0" />
		<edge from-layer="807" from-port="1" to-layer="810" to-port="0" />
		<edge from-layer="808" from-port="0" to-layer="809" to-port="0" />
		<edge from-layer="809" from-port="1" to-layer="810" to-port="1" />
		<edge from-layer="810" from-port="2" to-layer="813" to-port="0" />
		<edge from-layer="811" from-port="0" to-layer="812" to-port="0" />
		<edge from-layer="812" from-port="1" to-layer="813" to-port="1" />
		<edge from-layer="813" from-port="2" to-layer="814" to-port="0" />
		<edge from-layer="814" from-port="1" to-layer="817" to-port="0" />
		<edge from-layer="815" from-port="0" to-layer="816" to-port="0" />
		<edge from-layer="816" from-port="1" to-layer="817" to-port="1" />
		<edge from-layer="817" from-port="2" to-layer="820" to-port="0" />
		<edge from-layer="818" from-port="0" to-layer="819" to-port="0" />
		<edge from-layer="819" from-port="1" to-layer="820" to-port="1" />
		<edge from-layer="820" from-port="2" to-layer="821" to-port="0" />
		<edge from-layer="821" from-port="1" to-layer="824" to-port="0" />
		<edge from-layer="822" from-port="0" to-layer="823" to-port="0" />
		<edge from-layer="823" from-port="1" to-layer="824" to-port="1" />
		<edge from-layer="824" from-port="2" to-layer="827" to-port="0" />
		<edge from-layer="825" from-port="0" to-layer="826" to-port="0" />
		<edge from-layer="826" from-port="1" to-layer="827" to-port="1" />
		<edge from-layer="827" from-port="2" to-layer="828" to-port="0" />
		<edge from-layer="828" from-port="1" to-layer="831" to-port="0" />
		<edge from-layer="829" from-port="0" to-layer="830" to-port="0" />
		<edge from-layer="830" from-port="1" to-layer="831" to-port="1" />
		<edge from-layer="831" from-port="2" to-layer="834" to-port="0" />
		<edge from-layer="832" from-port="0" to-layer="833" to-port="0" />
		<edge from-layer="833" from-port="1" to-layer="834" to-port="1" />
		<edge from-layer="834" from-port="2" to-layer="836" to-port="0" />
		<edge from-layer="835" from-port="0" to-layer="836" to-port="1" />
		<edge from-layer="836" from-port="2" to-layer="837" to-port="2" />
		<edge from-layer="837" from-port="3" to-layer="838" to-port="0" />
		<edge from-layer="838" from-port="1" to-layer="839" to-port="1" />
		<edge from-layer="839" from-port="2" to-layer="841" to-port="0" />
		<edge from-layer="840" from-port="0" to-layer="841" to-port="1" />
		<edge from-layer="841" from-port="2" to-layer="844" to-port="0" />
		<edge from-layer="842" from-port="0" to-layer="844" to-port="1" />
		<edge from-layer="842" from-port="0" to-layer="845" to-port="1" />
		<edge from-layer="842" from-port="0" to-layer="848" to-port="1" />
		<edge from-layer="843" from-port="0" to-layer="844" to-port="2" />
		<edge from-layer="844" from-port="4" to-layer="845" to-port="0" />
		<edge from-layer="844" from-port="4" to-layer="856" to-port="0" />
		<edge from-layer="844" from-port="3" to-layer="880" to-port="0" />
		<edge from-layer="844" from-port="4" to-layer="852" to-port="0" />
		<edge from-layer="845" from-port="2" to-layer="847" to-port="0" />
		<edge from-layer="846" from-port="0" to-layer="855" to-port="1" />
		<edge from-layer="846" from-port="0" to-layer="847" to-port="1" />
		<edge from-layer="847" from-port="3" to-layer="848" to-port="0" />
		<edge from-layer="848" from-port="2" to-layer="871" to-port="0" />
		<edge from-layer="848" from-port="2" to-layer="851" to-port="0" />
		<edge from-layer="848" from-port="2" to-layer="850" to-port="0" />
		<edge from-layer="849" from-port="0" to-layer="850" to-port="1" />
		<edge from-layer="850" from-port="2" to-layer="876" to-port="0" />
		<edge from-layer="851" from-port="1" to-layer="852" to-port="1" />
		<edge from-layer="852" from-port="2" to-layer="854" to-port="0" />
		<edge from-layer="853" from-port="0" to-layer="854" to-port="1" />
		<edge from-layer="854" from-port="2" to-layer="855" to-port="0" />
		<edge from-layer="855" from-port="3" to-layer="882" to-port="0" />
		<edge from-layer="855" from-port="2" to-layer="881" to-port="0" />
		<edge from-layer="855" from-port="3" to-layer="860" to-port="0" />
		<edge from-layer="856" from-port="1" to-layer="866" to-port="0" />
		<edge from-layer="856" from-port="1" to-layer="859" to-port="0" />
		<edge from-layer="857" from-port="0" to-layer="859" to-port="1" />
		<edge from-layer="857" from-port="0" to-layer="881" to-port="1" />
		<edge from-layer="857" from-port="0" to-layer="883" to-port="1" />
		<edge from-layer="858" from-port="0" to-layer="859" to-port="2" />
		<edge from-layer="859" from-port="3" to-layer="882" to-port="1" />
		<edge from-layer="859" from-port="3" to-layer="860" to-port="1" />
		<edge from-layer="860" from-port="2" to-layer="861" to-port="0" />
		<edge from-layer="861" from-port="1" to-layer="862" to-port="0" />
		<edge from-layer="862" from-port="1" to-layer="875" to-port="0" />
		<edge from-layer="863" from-port="0" to-layer="868" to-port="0" />
		<edge from-layer="864" from-port="0" to-layer="866" to-port="1" />
		<edge from-layer="865" from-port="0" to-layer="866" to-port="2" />
		<edge from-layer="866" from-port="3" to-layer="868" to-port="1" />
		<edge from-layer="867" from-port="0" to-layer="868" to-port="2" />
		<edge from-layer="868" from-port="3" to-layer="869" to-port="0" />
		<edge from-layer="869" from-port="2" to-layer="870" to-port="0" />
		<edge from-layer="870" from-port="1" to-layer="874" to-port="0" />
		<edge from-layer="871" from-port="1" to-layer="873" to-port="0" />
		<edge from-layer="872" from-port="0" to-layer="876" to-port="2" />
		<edge from-layer="872" from-port="0" to-layer="873" to-port="1" />
		<edge from-layer="873" from-port="3" to-layer="874" to-port="1" />
		<edge from-layer="874" from-port="2" to-layer="875" to-port="1" />
		<edge from-layer="875" from-port="2" to-layer="876" to-port="1" />
		<edge from-layer="876" from-port="3" to-layer="878" to-port="0" />
		<edge from-layer="877" from-port="0" to-layer="878" to-port="1" />
		<edge from-layer="878" from-port="2" to-layer="879" to-port="0" />
		<edge from-layer="879" from-port="1" to-layer="880" to-port="1" />
		<edge from-layer="880" from-port="2" to-layer="885" to-port="0" />
		<edge from-layer="881" from-port="2" to-layer="885" to-port="1" />
		<edge from-layer="882" from-port="2" to-layer="883" to-port="0" />
		<edge from-layer="883" from-port="2" to-layer="884" to-port="0" />
		<edge from-layer="884" from-port="1" to-layer="885" to-port="2" />
		<edge from-layer="885" from-port="3" to-layer="886" to-port="0" />
	</edges>
	<rt_info>
		<Runtime_version value="2026.1.0-21367-63e31528c62-releases/2026/1" />
		<conversion_parameters>
			<framework value="pytorch" />
			<is_python_object value="True" />
		</conversion_parameters>
		<model_info>
			<iou_threshold value="0.7" />
			<labels value="target" />
			<model_type value="YOLO" />
			<pad_value value="114" />
			<resize_type value="fit_to_window_letterbox" />
			<reverse_input_channels value="YES" />
			<scale_values value="255" />
		</model_info>
	</rt_info>
</net>
